{"backend": "tensorflow", "keras_version": "2.1.6-tf", "class_name": "Model", "config": {"name": "model_2", "output_layers": [["concatenate", 0, 0]], "input_layers": [["anchor", 0, 0], ["positive", 0, 0], ["negative", 0, 0]], "layers": [{"name": "anchor", "inbound_nodes": [], "class_name": "InputLayer", "config": {"batch_input_shape": [null, 160, 160, 3], "sparse": false, "dtype": "float32", "name": "anchor"}}, {"name": "positive", "inbound_nodes": [], "class_name": "InputLayer", "config": {"batch_input_shape": [null, 160, 160, 3], "sparse": false, "dtype": "float32", "name": "positive"}}, {"name": "negative", "inbound_nodes": [], "class_name": "InputLayer", "config": {"batch_input_shape": [null, 160, 160, 3], "sparse": false, "dtype": "float32", "name": "negative"}}, {"name": "model", "inbound_nodes": [[["anchor", 0, 0, {}]], [["positive", 0, 0, {}]], [["negative", 0, 0, {}]]], "class_name": "Model", "config": {"name": "model", "output_layers": [["Dropout", 0, 0]], "input_layers": [["input_1", 0, 0]], "layers": [{"name": "input_1", "inbound_nodes": [], "class_name": "InputLayer", "config": {"batch_input_shape": [null, 160, 160, 3], "sparse": false, "dtype": "float32", "name": "input_1"}}, {"name": "Conv2d_1a_3x3", "inbound_nodes": [[["input_1", 0, 0, {}]]], "class_name": "Conv2D", "config": {"kernel_initializer": {"class_name": "VarianceScaling", "config": {"mode": "fan_avg", "distribution": "uniform", "seed": null, "scale": 1, "dtype": "float32"}}, "dilation_rate": [1, 1], "data_format": "channels_last", "trainable": false, "kernel_regularizer": null, "kernel_size": [3, 3], "activation": "linear", "bias_initializer": {"class_name": "Zeros", "config": {"dtype": "float32"}}, "dtype": "float32", "use_bias": false, "bias_regularizer": null, "kernel_constraint": null, "filters": 32, "strides": [2, 2], "name": "Conv2d_1a_3x3", "bias_constraint": null, "activity_regularizer": null, "padding": "valid"}}, {"name": "Conv2d_1a_3x3_BatchNorm", "inbound_nodes": [[["Conv2d_1a_3x3", 0, 0, {}]]], "class_name": "BatchNormalization", "config": {"center": true, "beta_initializer": {"class_name": "Zeros", "config": {"dtype": "float32"}}, "trainable": false, "beta_constraint": null, "beta_regularizer": null, "gamma_initializer": {"class_name": "Ones", "config": {"dtype": "float32"}}, "scale": false, "epsilon": 0.001, "moving_variance_initializer": {"class_name": "Ones", "config": {"dtype": "float32"}}, "axis": [3], "moving_mean_initializer": {"class_name": "Zeros", "config": {"dtype": "float32"}}, "dtype": "float32", "gamma_constraint": null, "name": "Conv2d_1a_3x3_BatchNorm", "gamma_regularizer": null, "momentum": 0.995}}, {"name": "Conv2d_1a_3x3_Activation", "inbound_nodes": [[["Conv2d_1a_3x3_BatchNorm", 0, 0, {}]]], "class_name": "Activation", "config": {"name": "Conv2d_1a_3x3_Activation", "trainable": false, "dtype": "float32", "activation": "relu"}}, {"name": "Conv2d_2a_3x3", "inbound_nodes": [[["Conv2d_1a_3x3_Activation", 0, 0, {}]]], "class_name": "Conv2D", "config": {"kernel_initializer": {"class_name": "VarianceScaling", "config": {"mode": "fan_avg", "distribution": "uniform", "seed": null, "scale": 1, "dtype": "float32"}}, "dilation_rate": [1, 1], "data_format": "channels_last", "trainable": false, "kernel_regularizer": null, "kernel_size": [3, 3], "activation": "linear", "bias_initializer": {"class_name": "Zeros", "config": {"dtype": "float32"}}, "dtype": "float32", "use_bias": false, "bias_regularizer": null, "kernel_constraint": null, "filters": 32, "strides": [1, 1], "name": "Conv2d_2a_3x3", "bias_constraint": null, "activity_regularizer": null, "padding": "valid"}}, {"name": "Conv2d_2a_3x3_BatchNorm", "inbound_nodes": [[["Conv2d_2a_3x3", 0, 0, {}]]], "class_name": "BatchNormalization", "config": {"center": true, "beta_initializer": {"class_name": "Zeros", "config": {"dtype": "float32"}}, "trainable": false, "beta_constraint": null, "beta_regularizer": null, "gamma_initializer": {"class_name": "Ones", "config": {"dtype": "float32"}}, "scale": false, "epsilon": 0.001, "moving_variance_initializer": {"class_name": "Ones", "config": {"dtype": "float32"}}, "axis": [3], "moving_mean_initializer": {"class_name": "Zeros", "config": {"dtype": "float32"}}, "dtype": "float32", "gamma_constraint": null, "name": "Conv2d_2a_3x3_BatchNorm", "gamma_regularizer": null, "momentum": 0.995}}, {"name": "Conv2d_2a_3x3_Activation", "inbound_nodes": [[["Conv2d_2a_3x3_BatchNorm", 0, 0, {}]]], "class_name": "Activation", "config": {"name": "Conv2d_2a_3x3_Activation", "trainable": false, "dtype": "float32", "activation": "relu"}}, {"name": "Conv2d_2b_3x3", "inbound_nodes": [[["Conv2d_2a_3x3_Activation", 0, 0, {}]]], "class_name": "Conv2D", "config": {"kernel_initializer": {"class_name": "VarianceScaling", "config": {"mode": "fan_avg", "distribution": "uniform", "seed": null, "scale": 1, "dtype": "float32"}}, "dilation_rate": [1, 1], "data_format": "channels_last", "trainable": false, "kernel_regularizer": null, "kernel_size": [3, 3], "activation": "linear", "bias_initializer": {"class_name": "Zeros", "config": {"dtype": "float32"}}, "dtype": "float32", "use_bias": false, "bias_regularizer": null, "kernel_constraint": null, "filters": 64, "strides": [1, 1], "name": "Conv2d_2b_3x3", "bias_constraint": null, "activity_regularizer": null, "padding": "same"}}, {"name": "Conv2d_2b_3x3_BatchNorm", "inbound_nodes": [[["Conv2d_2b_3x3", 0, 0, {}]]], "class_name": "BatchNormalization", "config": {"center": true, "beta_initializer": {"class_name": "Zeros", "config": {"dtype": "float32"}}, "trainable": false, "beta_constraint": null, "beta_regularizer": null, "gamma_initializer": {"class_name": "Ones", "config": {"dtype": "float32"}}, "scale": false, "epsilon": 0.001, "moving_variance_initializer": {"class_name": "Ones", "config": {"dtype": "float32"}}, "axis": [3], "moving_mean_initializer": {"class_name": "Zeros", "config": {"dtype": "float32"}}, "dtype": "float32", "gamma_constraint": null, "name": "Conv2d_2b_3x3_BatchNorm", "gamma_regularizer": null, "momentum": 0.995}}, {"name": "Conv2d_2b_3x3_Activation", "inbound_nodes": [[["Conv2d_2b_3x3_BatchNorm", 0, 0, {}]]], "class_name": "Activation", "config": {"name": "Conv2d_2b_3x3_Activation", "trainable": false, "dtype": "float32", "activation": "relu"}}, {"name": "MaxPool_3a_3x3", "inbound_nodes": [[["Conv2d_2b_3x3_Activation", 0, 0, {}]]], "class_name": "MaxPooling2D", "config": {"data_format": "channels_last", "trainable": false, "strides": [2, 2], "name": "MaxPool_3a_3x3", "pool_size": [3, 3], "padding": "valid", "dtype": "float32"}}, {"name": "Conv2d_3b_1x1", "inbound_nodes": [[["MaxPool_3a_3x3", 0, 0, {}]]], "class_name": "Conv2D", "config": {"kernel_initializer": {"class_name": "VarianceScaling", "config": {"mode": "fan_avg", "distribution": "uniform", "seed": null, "scale": 1, "dtype": "float32"}}, "dilation_rate": [1, 1], "data_format": "channels_last", "trainable": false, "kernel_regularizer": null, "kernel_size": [1, 1], "activation": "linear", "bias_initializer": {"class_name": "Zeros", "config": {"dtype": "float32"}}, "dtype": "float32", "use_bias": false, "bias_regularizer": null, "kernel_constraint": null, "filters": 80, "strides": [1, 1], "name": "Conv2d_3b_1x1", "bias_constraint": null, "activity_regularizer": null, "padding": "valid"}}, {"name": "Conv2d_3b_1x1_BatchNorm", "inbound_nodes": [[["Conv2d_3b_1x1", 0, 0, {}]]], "class_name": "BatchNormalization", "config": {"center": true, "beta_initializer": {"class_name": "Zeros", "config": {"dtype": "float32"}}, "trainable": false, "beta_constraint": null, "beta_regularizer": null, "gamma_initializer": {"class_name": "Ones", "config": {"dtype": "float32"}}, "scale": false, "epsilon": 0.001, "moving_variance_initializer": {"class_name": "Ones", "config": {"dtype": "float32"}}, "axis": [3], "moving_mean_initializer": {"class_name": "Zeros", "config": {"dtype": "float32"}}, "dtype": "float32", "gamma_constraint": null, "name": "Conv2d_3b_1x1_BatchNorm", "gamma_regularizer": null, "momentum": 0.995}}, {"name": "Conv2d_3b_1x1_Activation", "inbound_nodes": [[["Conv2d_3b_1x1_BatchNorm", 0, 0, {}]]], "class_name": "Activation", "config": {"name": "Conv2d_3b_1x1_Activation", "trainable": false, "dtype": "float32", "activation": "relu"}}, {"name": "Conv2d_4a_3x3", "inbound_nodes": [[["Conv2d_3b_1x1_Activation", 0, 0, {}]]], "class_name": "Conv2D", "config": {"kernel_initializer": {"class_name": "VarianceScaling", "config": {"mode": "fan_avg", "distribution": "uniform", "seed": null, "scale": 1, "dtype": "float32"}}, "dilation_rate": [1, 1], "data_format": "channels_last", "trainable": false, "kernel_regularizer": null, "kernel_size": [3, 3], "activation": "linear", "bias_initializer": {"class_name": "Zeros", "config": {"dtype": "float32"}}, "dtype": "float32", "use_bias": false, "bias_regularizer": null, "kernel_constraint": null, "filters": 192, "strides": [1, 1], "name": "Conv2d_4a_3x3", "bias_constraint": null, "activity_regularizer": null, "padding": "valid"}}, {"name": "Conv2d_4a_3x3_BatchNorm", "inbound_nodes": [[["Conv2d_4a_3x3", 0, 0, {}]]], "class_name": "BatchNormalization", "config": {"center": true, "beta_initializer": {"class_name": "Zeros", "config": {"dtype": "float32"}}, "trainable": false, "beta_constraint": null, "beta_regularizer": null, "gamma_initializer": {"class_name": "Ones", "config": {"dtype": "float32"}}, "scale": false, "epsilon": 0.001, "moving_variance_initializer": {"class_name": "Ones", "config": {"dtype": "float32"}}, "axis": [3], "moving_mean_initializer": {"class_name": "Zeros", "config": {"dtype": "float32"}}, "dtype": "float32", "gamma_constraint": null, "name": "Conv2d_4a_3x3_BatchNorm", "gamma_regularizer": null, "momentum": 0.995}}, {"name": "Conv2d_4a_3x3_Activation", "inbound_nodes": [[["Conv2d_4a_3x3_BatchNorm", 0, 0, {}]]], "class_name": "Activation", "config": {"name": "Conv2d_4a_3x3_Activation", "trainable": false, "dtype": "float32", "activation": "relu"}}, {"name": "Conv2d_4b_3x3", "inbound_nodes": [[["Conv2d_4a_3x3_Activation", 0, 0, {}]]], "class_name": "Conv2D", "config": {"kernel_initializer": {"class_name": "VarianceScaling", "config": {"mode": "fan_avg", "distribution": "uniform", "seed": null, "scale": 1, "dtype": "float32"}}, "dilation_rate": [1, 1], "data_format": "channels_last", "trainable": false, "kernel_regularizer": null, "kernel_size": [3, 3], "activation": "linear", "bias_initializer": {"class_name": "Zeros", "config": {"dtype": "float32"}}, "dtype": "float32", "use_bias": false, "bias_regularizer": null, "kernel_constraint": null, "filters": 256, "strides": [2, 2], "name": "Conv2d_4b_3x3", "bias_constraint": null, "activity_regularizer": null, "padding": "valid"}}, {"name": "Conv2d_4b_3x3_BatchNorm", "inbound_nodes": [[["Conv2d_4b_3x3", 0, 0, {}]]], "class_name": "BatchNormalization", "config": {"center": true, "beta_initializer": {"class_name": "Zeros", "config": {"dtype": "float32"}}, "trainable": false, "beta_constraint": null, "beta_regularizer": null, "gamma_initializer": {"class_name": "Ones", "config": {"dtype": "float32"}}, "scale": false, "epsilon": 0.001, "moving_variance_initializer": {"class_name": "Ones", "config": {"dtype": "float32"}}, "axis": [3], "moving_mean_initializer": {"class_name": "Zeros", "config": {"dtype": "float32"}}, "dtype": "float32", "gamma_constraint": null, "name": "Conv2d_4b_3x3_BatchNorm", "gamma_regularizer": null, "momentum": 0.995}}, {"name": "Conv2d_4b_3x3_Activation", "inbound_nodes": [[["Conv2d_4b_3x3_BatchNorm", 0, 0, {}]]], "class_name": "Activation", "config": {"name": "Conv2d_4b_3x3_Activation", "trainable": false, "dtype": "float32", "activation": "relu"}}, {"name": "Block35_1_Branch_2_Conv2d_0a_1x1", "inbound_nodes": [[["Conv2d_4b_3x3_Activation", 0, 0, {}]]], "class_name": "Conv2D", "config": {"kernel_initializer": {"class_name": "VarianceScaling", "config": {"mode": "fan_avg", "distribution": "uniform", "seed": null, "scale": 1, "dtype": "float32"}}, "dilation_rate": [1, 1], "data_format": "channels_last", "trainable": false, "kernel_regularizer": null, "kernel_size": [1, 1], "activation": "linear", "bias_initializer": {"class_name": "Zeros", "config": {"dtype": "float32"}}, "dtype": "float32", "use_bias": false, "bias_regularizer": null, "kernel_constraint": null, "filters": 32, "strides": [1, 1], "name": "Block35_1_Branch_2_Conv2d_0a_1x1", "bias_constraint": null, "activity_regularizer": null, "padding": "same"}}, {"name": "Block35_1_Branch_2_Conv2d_0a_1x1_BatchNorm", "inbound_nodes": [[["Block35_1_Branch_2_Conv2d_0a_1x1", 0, 0, {}]]], "class_name": "BatchNormalization", "config": {"center": true, "beta_initializer": {"class_name": "Zeros", "config": {"dtype": "float32"}}, "trainable": false, "beta_constraint": null, "beta_regularizer": null, "gamma_initializer": {"class_name": "Ones", "config": {"dtype": "float32"}}, "scale": false, "epsilon": 0.001, "moving_variance_initializer": {"class_name": "Ones", "config": {"dtype": "float32"}}, "axis": [3], "moving_mean_initializer": {"class_name": "Zeros", "config": {"dtype": "float32"}}, "dtype": "float32", "gamma_constraint": null, "name": "Block35_1_Branch_2_Conv2d_0a_1x1_BatchNorm", "gamma_regularizer": null, "momentum": 0.995}}, {"name": "Block35_1_Branch_2_Conv2d_0a_1x1_Activation", "inbound_nodes": [[["Block35_1_Branch_2_Conv2d_0a_1x1_BatchNorm", 0, 0, {}]]], "class_name": "Activation", "config": {"name": "Block35_1_Branch_2_Conv2d_0a_1x1_Activation", "trainable": false, "dtype": "float32", "activation": "relu"}}, {"name": "Block35_1_Branch_1_Conv2d_0a_1x1", "inbound_nodes": [[["Conv2d_4b_3x3_Activation", 0, 0, {}]]], "class_name": "Conv2D", "config": {"kernel_initializer": {"class_name": "VarianceScaling", "config": {"mode": "fan_avg", "distribution": "uniform", "seed": null, "scale": 1, "dtype": "float32"}}, "dilation_rate": [1, 1], "data_format": "channels_last", "trainable": false, "kernel_regularizer": null, "kernel_size": [1, 1], "activation": "linear", "bias_initializer": {"class_name": "Zeros", "config": {"dtype": "float32"}}, "dtype": "float32", "use_bias": false, "bias_regularizer": null, "kernel_constraint": null, "filters": 32, "strides": [1, 1], "name": "Block35_1_Branch_1_Conv2d_0a_1x1", "bias_constraint": null, "activity_regularizer": null, "padding": "same"}}, {"name": "Block35_1_Branch_2_Conv2d_0b_3x3", "inbound_nodes": [[["Block35_1_Branch_2_Conv2d_0a_1x1_Activation", 0, 0, {}]]], "class_name": "Conv2D", "config": {"kernel_initializer": {"class_name": "VarianceScaling", "config": {"mode": "fan_avg", "distribution": "uniform", "seed": null, "scale": 1, "dtype": "float32"}}, "dilation_rate": [1, 1], "data_format": "channels_last", "trainable": false, "kernel_regularizer": null, "kernel_size": [3, 3], "activation": "linear", "bias_initializer": {"class_name": "Zeros", "config": {"dtype": "float32"}}, "dtype": "float32", "use_bias": false, "bias_regularizer": null, "kernel_constraint": null, "filters": 32, "strides": [1, 1], "name": "Block35_1_Branch_2_Conv2d_0b_3x3", "bias_constraint": null, "activity_regularizer": null, "padding": "same"}}, {"name": "Block35_1_Branch_1_Conv2d_0a_1x1_BatchNorm", "inbound_nodes": [[["Block35_1_Branch_1_Conv2d_0a_1x1", 0, 0, {}]]], "class_name": "BatchNormalization", "config": {"center": true, "beta_initializer": {"class_name": "Zeros", "config": {"dtype": "float32"}}, "trainable": false, "beta_constraint": null, "beta_regularizer": null, "gamma_initializer": {"class_name": "Ones", "config": {"dtype": "float32"}}, "scale": false, "epsilon": 0.001, "moving_variance_initializer": {"class_name": "Ones", "config": {"dtype": "float32"}}, "axis": [3], "moving_mean_initializer": {"class_name": "Zeros", "config": {"dtype": "float32"}}, "dtype": "float32", "gamma_constraint": null, "name": "Block35_1_Branch_1_Conv2d_0a_1x1_BatchNorm", "gamma_regularizer": null, "momentum": 0.995}}, {"name": "Block35_1_Branch_2_Conv2d_0b_3x3_BatchNorm", "inbound_nodes": [[["Block35_1_Branch_2_Conv2d_0b_3x3", 0, 0, {}]]], "class_name": "BatchNormalization", "config": {"center": true, "beta_initializer": {"class_name": "Zeros", "config": {"dtype": "float32"}}, "trainable": false, "beta_constraint": null, "beta_regularizer": null, "gamma_initializer": {"class_name": "Ones", "config": {"dtype": "float32"}}, "scale": false, "epsilon": 0.001, "moving_variance_initializer": {"class_name": "Ones", "config": {"dtype": "float32"}}, "axis": [3], "moving_mean_initializer": {"class_name": "Zeros", "config": {"dtype": "float32"}}, "dtype": "float32", "gamma_constraint": null, "name": "Block35_1_Branch_2_Conv2d_0b_3x3_BatchNorm", "gamma_regularizer": null, "momentum": 0.995}}, {"name": "Block35_1_Branch_1_Conv2d_0a_1x1_Activation", "inbound_nodes": [[["Block35_1_Branch_1_Conv2d_0a_1x1_BatchNorm", 0, 0, {}]]], "class_name": "Activation", "config": {"name": "Block35_1_Branch_1_Conv2d_0a_1x1_Activation", "trainable": false, "dtype": "float32", "activation": "relu"}}, {"name": "Block35_1_Branch_2_Conv2d_0b_3x3_Activation", "inbound_nodes": [[["Block35_1_Branch_2_Conv2d_0b_3x3_BatchNorm", 0, 0, {}]]], "class_name": "Activation", "config": {"name": "Block35_1_Branch_2_Conv2d_0b_3x3_Activation", "trainable": false, "dtype": "float32", "activation": "relu"}}, {"name": "Block35_1_Branch_0_Conv2d_1x1", "inbound_nodes": [[["Conv2d_4b_3x3_Activation", 0, 0, {}]]], "class_name": "Conv2D", "config": {"kernel_initializer": {"class_name": "VarianceScaling", "config": {"mode": "fan_avg", "distribution": "uniform", "seed": null, "scale": 1, "dtype": "float32"}}, "dilation_rate": [1, 1], "data_format": "channels_last", "trainable": false, "kernel_regularizer": null, "kernel_size": [1, 1], "activation": "linear", "bias_initializer": {"class_name": "Zeros", "config": {"dtype": "float32"}}, "dtype": "float32", "use_bias": false, "bias_regularizer": null, "kernel_constraint": null, "filters": 32, "strides": [1, 1], "name": "Block35_1_Branch_0_Conv2d_1x1", "bias_constraint": null, "activity_regularizer": null, "padding": "same"}}, {"name": "Block35_1_Branch_1_Conv2d_0b_3x3", "inbound_nodes": [[["Block35_1_Branch_1_Conv2d_0a_1x1_Activation", 0, 0, {}]]], "class_name": "Conv2D", "config": {"kernel_initializer": {"class_name": "VarianceScaling", "config": {"mode": "fan_avg", "distribution": "uniform", "seed": null, "scale": 1, "dtype": "float32"}}, "dilation_rate": [1, 1], "data_format": "channels_last", "trainable": false, "kernel_regularizer": null, "kernel_size": [3, 3], "activation": "linear", "bias_initializer": {"class_name": "Zeros", "config": {"dtype": "float32"}}, "dtype": "float32", "use_bias": false, "bias_regularizer": null, "kernel_constraint": null, "filters": 32, "strides": [1, 1], "name": "Block35_1_Branch_1_Conv2d_0b_3x3", "bias_constraint": null, "activity_regularizer": null, "padding": "same"}}, {"name": "Block35_1_Branch_2_Conv2d_0c_3x3", "inbound_nodes": [[["Block35_1_Branch_2_Conv2d_0b_3x3_Activation", 0, 0, {}]]], "class_name": "Conv2D", "config": {"kernel_initializer": {"class_name": "VarianceScaling", "config": {"mode": "fan_avg", "distribution": "uniform", "seed": null, "scale": 1, "dtype": "float32"}}, "dilation_rate": [1, 1], "data_format": "channels_last", "trainable": false, "kernel_regularizer": null, "kernel_size": [3, 3], "activation": "linear", "bias_initializer": {"class_name": "Zeros", "config": {"dtype": "float32"}}, "dtype": "float32", "use_bias": false, "bias_regularizer": null, "kernel_constraint": null, "filters": 32, "strides": [1, 1], "name": "Block35_1_Branch_2_Conv2d_0c_3x3", "bias_constraint": null, "activity_regularizer": null, "padding": "same"}}, {"name": "Block35_1_Branch_0_Conv2d_1x1_BatchNorm", "inbound_nodes": [[["Block35_1_Branch_0_Conv2d_1x1", 0, 0, {}]]], "class_name": "BatchNormalization", "config": {"center": true, "beta_initializer": {"class_name": "Zeros", "config": {"dtype": "float32"}}, "trainable": false, "beta_constraint": null, "beta_regularizer": null, "gamma_initializer": {"class_name": "Ones", "config": {"dtype": "float32"}}, "scale": false, "epsilon": 0.001, "moving_variance_initializer": {"class_name": "Ones", "config": {"dtype": "float32"}}, "axis": [3], "moving_mean_initializer": {"class_name": "Zeros", "config": {"dtype": "float32"}}, "dtype": "float32", "gamma_constraint": null, "name": "Block35_1_Branch_0_Conv2d_1x1_BatchNorm", "gamma_regularizer": null, "momentum": 0.995}}, {"name": "Block35_1_Branch_1_Conv2d_0b_3x3_BatchNorm", "inbound_nodes": [[["Block35_1_Branch_1_Conv2d_0b_3x3", 0, 0, {}]]], "class_name": "BatchNormalization", "config": {"center": true, "beta_initializer": {"class_name": "Zeros", "config": {"dtype": "float32"}}, "trainable": false, "beta_constraint": null, "beta_regularizer": null, "gamma_initializer": {"class_name": "Ones", "config": {"dtype": "float32"}}, "scale": false, "epsilon": 0.001, "moving_variance_initializer": {"class_name": "Ones", "config": {"dtype": "float32"}}, "axis": [3], "moving_mean_initializer": {"class_name": "Zeros", "config": {"dtype": "float32"}}, "dtype": "float32", "gamma_constraint": null, "name": "Block35_1_Branch_1_Conv2d_0b_3x3_BatchNorm", "gamma_regularizer": null, "momentum": 0.995}}, {"name": "Block35_1_Branch_2_Conv2d_0c_3x3_BatchNorm", "inbound_nodes": [[["Block35_1_Branch_2_Conv2d_0c_3x3", 0, 0, {}]]], "class_name": "BatchNormalization", "config": {"center": true, "beta_initializer": {"class_name": "Zeros", "config": {"dtype": "float32"}}, "trainable": false, "beta_constraint": null, "beta_regularizer": null, "gamma_initializer": {"class_name": "Ones", "config": {"dtype": "float32"}}, "scale": false, "epsilon": 0.001, "moving_variance_initializer": {"class_name": "Ones", "config": {"dtype": "float32"}}, "axis": [3], "moving_mean_initializer": {"class_name": "Zeros", "config": {"dtype": "float32"}}, "dtype": "float32", "gamma_constraint": null, "name": "Block35_1_Branch_2_Conv2d_0c_3x3_BatchNorm", "gamma_regularizer": null, "momentum": 0.995}}, {"name": "Block35_1_Branch_0_Conv2d_1x1_Activation", "inbound_nodes": [[["Block35_1_Branch_0_Conv2d_1x1_BatchNorm", 0, 0, {}]]], "class_name": "Activation", "config": {"name": "Block35_1_Branch_0_Conv2d_1x1_Activation", "trainable": false, "dtype": "float32", "activation": "relu"}}, {"name": "Block35_1_Branch_1_Conv2d_0b_3x3_Activation", "inbound_nodes": [[["Block35_1_Branch_1_Conv2d_0b_3x3_BatchNorm", 0, 0, {}]]], "class_name": "Activation", "config": {"name": "Block35_1_Branch_1_Conv2d_0b_3x3_Activation", "trainable": false, "dtype": "float32", "activation": "relu"}}, {"name": "Block35_1_Branch_2_Conv2d_0c_3x3_Activation", "inbound_nodes": [[["Block35_1_Branch_2_Conv2d_0c_3x3_BatchNorm", 0, 0, {}]]], "class_name": "Activation", "config": {"name": "Block35_1_Branch_2_Conv2d_0c_3x3_Activation", "trainable": false, "dtype": "float32", "activation": "relu"}}, {"name": "Block35_1_Concatenate", "inbound_nodes": [[["Block35_1_Branch_0_Conv2d_1x1_Activation", 0, 0, {}], ["Block35_1_Branch_1_Conv2d_0b_3x3_Activation", 0, 0, {}], ["Block35_1_Branch_2_Conv2d_0c_3x3_Activation", 0, 0, {}]]], "class_name": "Concatenate", "config": {"name": "Block35_1_Concatenate", "trainable": false, "dtype": "float32", "axis": 3}}, {"name": "Block35_1_Conv2d_1x1", "inbound_nodes": [[["Block35_1_Concatenate", 0, 0, {}]]], "class_name": "Conv2D", "config": {"kernel_initializer": {"class_name": "VarianceScaling", "config": {"mode": "fan_avg", "distribution": "uniform", "seed": null, "scale": 1, "dtype": "float32"}}, "dilation_rate": [1, 1], "data_format": "channels_last", "trainable": false, "kernel_regularizer": null, "kernel_size": [1, 1], "activation": "linear", "bias_initializer": {"class_name": "Zeros", "config": {"dtype": "float32"}}, "dtype": "float32", "use_bias": true, "bias_regularizer": null, "kernel_constraint": null, "filters": 256, "strides": [1, 1], "name": "Block35_1_Conv2d_1x1", "bias_constraint": null, "activity_regularizer": null, "padding": "same"}}, {"name": "lambda_1", "inbound_nodes": [[["Block35_1_Conv2d_1x1", 0, 0, {}]]], "class_name": "Lambda", "config": {"output_shape_module": null, "output_shape": [17, 17, 256], "trainable": false, "arguments": {"scale": 0.17}, "function_type": "lambda", "name": "lambda_1", "module": "tensorflow.python.keras.layers.core", "function": ["4wIAAAAAAAAAAgAAAAIAAABDAAAAcwgAAAB8AAB8AQAUUykBTqkAKQLaAXjaBXNjYWxlcgEAAABy\nAQAAAPovQzovVXNlcnMvSVM5NjI3My9EZXNrdG9wL2luY2VwdGlvbl9yZXNuZXRfdjEucHnaB3Nj\nYWxpbmcZAAAAcwIAAAAAAQ==\n", null, null], "dtype": "float32", "output_shape_type": "raw"}}, {"name": "add_1", "inbound_nodes": [[["Conv2d_4b_3x3_Activation", 0, 0, {}], ["lambda_1", 0, 0, {}]]], "class_name": "Add", "config": {"name": "add_1", "trainable": false, "dtype": "float32"}}, {"name": "Block35_1_Activation", "inbound_nodes": [[["add_1", 0, 0, {}]]], "class_name": "Activation", "config": {"name": "Block35_1_Activation", "trainable": false, "dtype": "float32", "activation": "relu"}}, {"name": "Block35_2_Branch_2_Conv2d_0a_1x1", "inbound_nodes": [[["Block35_1_Activation", 0, 0, {}]]], "class_name": "Conv2D", "config": {"kernel_initializer": {"class_name": "VarianceScaling", "config": {"mode": "fan_avg", "distribution": "uniform", "seed": null, "scale": 1, "dtype": "float32"}}, "dilation_rate": [1, 1], "data_format": "channels_last", "trainable": false, "kernel_regularizer": null, "kernel_size": [1, 1], "activation": "linear", "bias_initializer": {"class_name": "Zeros", "config": {"dtype": "float32"}}, "dtype": "float32", "use_bias": false, "bias_regularizer": null, "kernel_constraint": null, "filters": 32, "strides": [1, 1], "name": "Block35_2_Branch_2_Conv2d_0a_1x1", "bias_constraint": null, "activity_regularizer": null, "padding": "same"}}, {"name": "Block35_2_Branch_2_Conv2d_0a_1x1_BatchNorm", "inbound_nodes": [[["Block35_2_Branch_2_Conv2d_0a_1x1", 0, 0, {}]]], "class_name": "BatchNormalization", "config": {"center": true, "beta_initializer": {"class_name": "Zeros", "config": {"dtype": "float32"}}, "trainable": false, "beta_constraint": null, "beta_regularizer": null, "gamma_initializer": {"class_name": "Ones", "config": {"dtype": "float32"}}, "scale": false, "epsilon": 0.001, "moving_variance_initializer": {"class_name": "Ones", "config": {"dtype": "float32"}}, "axis": [3], "moving_mean_initializer": {"class_name": "Zeros", "config": {"dtype": "float32"}}, "dtype": "float32", "gamma_constraint": null, "name": "Block35_2_Branch_2_Conv2d_0a_1x1_BatchNorm", "gamma_regularizer": null, "momentum": 0.995}}, {"name": "Block35_2_Branch_2_Conv2d_0a_1x1_Activation", "inbound_nodes": [[["Block35_2_Branch_2_Conv2d_0a_1x1_BatchNorm", 0, 0, {}]]], "class_name": "Activation", "config": {"name": "Block35_2_Branch_2_Conv2d_0a_1x1_Activation", "trainable": false, "dtype": "float32", "activation": "relu"}}, {"name": "Block35_2_Branch_1_Conv2d_0a_1x1", "inbound_nodes": [[["Block35_1_Activation", 0, 0, {}]]], "class_name": "Conv2D", "config": {"kernel_initializer": {"class_name": "VarianceScaling", "config": {"mode": "fan_avg", "distribution": "uniform", "seed": null, "scale": 1, "dtype": "float32"}}, "dilation_rate": [1, 1], "data_format": "channels_last", "trainable": false, "kernel_regularizer": null, "kernel_size": [1, 1], "activation": "linear", "bias_initializer": {"class_name": "Zeros", "config": {"dtype": "float32"}}, "dtype": "float32", "use_bias": false, "bias_regularizer": null, "kernel_constraint": null, "filters": 32, "strides": [1, 1], "name": "Block35_2_Branch_1_Conv2d_0a_1x1", "bias_constraint": null, "activity_regularizer": null, "padding": "same"}}, {"name": "Block35_2_Branch_2_Conv2d_0b_3x3", "inbound_nodes": [[["Block35_2_Branch_2_Conv2d_0a_1x1_Activation", 0, 0, {}]]], "class_name": "Conv2D", "config": {"kernel_initializer": {"class_name": "VarianceScaling", "config": {"mode": "fan_avg", "distribution": "uniform", "seed": null, "scale": 1, "dtype": "float32"}}, "dilation_rate": [1, 1], "data_format": "channels_last", "trainable": false, "kernel_regularizer": null, "kernel_size": [3, 3], "activation": "linear", "bias_initializer": {"class_name": "Zeros", "config": {"dtype": "float32"}}, "dtype": "float32", "use_bias": false, "bias_regularizer": null, "kernel_constraint": null, "filters": 32, "strides": [1, 1], "name": "Block35_2_Branch_2_Conv2d_0b_3x3", "bias_constraint": null, "activity_regularizer": null, "padding": "same"}}, {"name": "Block35_2_Branch_1_Conv2d_0a_1x1_BatchNorm", "inbound_nodes": [[["Block35_2_Branch_1_Conv2d_0a_1x1", 0, 0, {}]]], "class_name": "BatchNormalization", "config": {"center": true, "beta_initializer": {"class_name": "Zeros", "config": {"dtype": "float32"}}, "trainable": false, "beta_constraint": null, "beta_regularizer": null, "gamma_initializer": {"class_name": "Ones", "config": {"dtype": "float32"}}, "scale": false, "epsilon": 0.001, "moving_variance_initializer": {"class_name": "Ones", "config": {"dtype": "float32"}}, "axis": [3], "moving_mean_initializer": {"class_name": "Zeros", "config": {"dtype": "float32"}}, "dtype": "float32", "gamma_constraint": null, "name": "Block35_2_Branch_1_Conv2d_0a_1x1_BatchNorm", "gamma_regularizer": null, "momentum": 0.995}}, {"name": "Block35_2_Branch_2_Conv2d_0b_3x3_BatchNorm", "inbound_nodes": [[["Block35_2_Branch_2_Conv2d_0b_3x3", 0, 0, {}]]], "class_name": "BatchNormalization", "config": {"center": true, "beta_initializer": {"class_name": "Zeros", "config": {"dtype": "float32"}}, "trainable": false, "beta_constraint": null, "beta_regularizer": null, "gamma_initializer": {"class_name": "Ones", "config": {"dtype": "float32"}}, "scale": false, "epsilon": 0.001, "moving_variance_initializer": {"class_name": "Ones", "config": {"dtype": "float32"}}, "axis": [3], "moving_mean_initializer": {"class_name": "Zeros", "config": {"dtype": "float32"}}, "dtype": "float32", "gamma_constraint": null, "name": "Block35_2_Branch_2_Conv2d_0b_3x3_BatchNorm", "gamma_regularizer": null, "momentum": 0.995}}, {"name": "Block35_2_Branch_1_Conv2d_0a_1x1_Activation", "inbound_nodes": [[["Block35_2_Branch_1_Conv2d_0a_1x1_BatchNorm", 0, 0, {}]]], "class_name": "Activation", "config": {"name": "Block35_2_Branch_1_Conv2d_0a_1x1_Activation", "trainable": false, "dtype": "float32", "activation": "relu"}}, {"name": "Block35_2_Branch_2_Conv2d_0b_3x3_Activation", "inbound_nodes": [[["Block35_2_Branch_2_Conv2d_0b_3x3_BatchNorm", 0, 0, {}]]], "class_name": "Activation", "config": {"name": "Block35_2_Branch_2_Conv2d_0b_3x3_Activation", "trainable": false, "dtype": "float32", "activation": "relu"}}, {"name": "Block35_2_Branch_0_Conv2d_1x1", "inbound_nodes": [[["Block35_1_Activation", 0, 0, {}]]], "class_name": "Conv2D", "config": {"kernel_initializer": {"class_name": "VarianceScaling", "config": {"mode": "fan_avg", "distribution": "uniform", "seed": null, "scale": 1, "dtype": "float32"}}, "dilation_rate": [1, 1], "data_format": "channels_last", "trainable": false, "kernel_regularizer": null, "kernel_size": [1, 1], "activation": "linear", "bias_initializer": {"class_name": "Zeros", "config": {"dtype": "float32"}}, "dtype": "float32", "use_bias": false, "bias_regularizer": null, "kernel_constraint": null, "filters": 32, "strides": [1, 1], "name": "Block35_2_Branch_0_Conv2d_1x1", "bias_constraint": null, "activity_regularizer": null, "padding": "same"}}, {"name": "Block35_2_Branch_1_Conv2d_0b_3x3", "inbound_nodes": [[["Block35_2_Branch_1_Conv2d_0a_1x1_Activation", 0, 0, {}]]], "class_name": "Conv2D", "config": {"kernel_initializer": {"class_name": "VarianceScaling", "config": {"mode": "fan_avg", "distribution": "uniform", "seed": null, "scale": 1, "dtype": "float32"}}, "dilation_rate": [1, 1], "data_format": "channels_last", "trainable": false, "kernel_regularizer": null, "kernel_size": [3, 3], "activation": "linear", "bias_initializer": {"class_name": "Zeros", "config": {"dtype": "float32"}}, "dtype": "float32", "use_bias": false, "bias_regularizer": null, "kernel_constraint": null, "filters": 32, "strides": [1, 1], "name": "Block35_2_Branch_1_Conv2d_0b_3x3", "bias_constraint": null, "activity_regularizer": null, "padding": "same"}}, {"name": "Block35_2_Branch_2_Conv2d_0c_3x3", "inbound_nodes": [[["Block35_2_Branch_2_Conv2d_0b_3x3_Activation", 0, 0, {}]]], "class_name": "Conv2D", "config": {"kernel_initializer": {"class_name": "VarianceScaling", "config": {"mode": "fan_avg", "distribution": "uniform", "seed": null, "scale": 1, "dtype": "float32"}}, "dilation_rate": [1, 1], "data_format": "channels_last", "trainable": false, "kernel_regularizer": null, "kernel_size": [3, 3], "activation": "linear", "bias_initializer": {"class_name": "Zeros", "config": {"dtype": "float32"}}, "dtype": "float32", "use_bias": false, "bias_regularizer": null, "kernel_constraint": null, "filters": 32, "strides": [1, 1], "name": "Block35_2_Branch_2_Conv2d_0c_3x3", "bias_constraint": null, "activity_regularizer": null, "padding": "same"}}, {"name": "Block35_2_Branch_0_Conv2d_1x1_BatchNorm", "inbound_nodes": [[["Block35_2_Branch_0_Conv2d_1x1", 0, 0, {}]]], "class_name": "BatchNormalization", "config": {"center": true, "beta_initializer": {"class_name": "Zeros", "config": {"dtype": "float32"}}, "trainable": false, "beta_constraint": null, "beta_regularizer": null, "gamma_initializer": {"class_name": "Ones", "config": {"dtype": "float32"}}, "scale": false, "epsilon": 0.001, "moving_variance_initializer": {"class_name": "Ones", "config": {"dtype": "float32"}}, "axis": [3], "moving_mean_initializer": {"class_name": "Zeros", "config": {"dtype": "float32"}}, "dtype": "float32", "gamma_constraint": null, "name": "Block35_2_Branch_0_Conv2d_1x1_BatchNorm", "gamma_regularizer": null, "momentum": 0.995}}, {"name": "Block35_2_Branch_1_Conv2d_0b_3x3_BatchNorm", "inbound_nodes": [[["Block35_2_Branch_1_Conv2d_0b_3x3", 0, 0, {}]]], "class_name": "BatchNormalization", "config": {"center": true, "beta_initializer": {"class_name": "Zeros", "config": {"dtype": "float32"}}, "trainable": false, "beta_constraint": null, "beta_regularizer": null, "gamma_initializer": {"class_name": "Ones", "config": {"dtype": "float32"}}, "scale": false, "epsilon": 0.001, "moving_variance_initializer": {"class_name": "Ones", "config": {"dtype": "float32"}}, "axis": [3], "moving_mean_initializer": {"class_name": "Zeros", "config": {"dtype": "float32"}}, "dtype": "float32", "gamma_constraint": null, "name": "Block35_2_Branch_1_Conv2d_0b_3x3_BatchNorm", "gamma_regularizer": null, "momentum": 0.995}}, {"name": "Block35_2_Branch_2_Conv2d_0c_3x3_BatchNorm", "inbound_nodes": [[["Block35_2_Branch_2_Conv2d_0c_3x3", 0, 0, {}]]], "class_name": "BatchNormalization", "config": {"center": true, "beta_initializer": {"class_name": "Zeros", "config": {"dtype": "float32"}}, "trainable": false, "beta_constraint": null, "beta_regularizer": null, "gamma_initializer": {"class_name": "Ones", "config": {"dtype": "float32"}}, "scale": false, "epsilon": 0.001, "moving_variance_initializer": {"class_name": "Ones", "config": {"dtype": "float32"}}, "axis": [3], "moving_mean_initializer": {"class_name": "Zeros", "config": {"dtype": "float32"}}, "dtype": "float32", "gamma_constraint": null, "name": "Block35_2_Branch_2_Conv2d_0c_3x3_BatchNorm", "gamma_regularizer": null, "momentum": 0.995}}, {"name": "Block35_2_Branch_0_Conv2d_1x1_Activation", "inbound_nodes": [[["Block35_2_Branch_0_Conv2d_1x1_BatchNorm", 0, 0, {}]]], "class_name": "Activation", "config": {"name": "Block35_2_Branch_0_Conv2d_1x1_Activation", "trainable": false, "dtype": "float32", "activation": "relu"}}, {"name": "Block35_2_Branch_1_Conv2d_0b_3x3_Activation", "inbound_nodes": [[["Block35_2_Branch_1_Conv2d_0b_3x3_BatchNorm", 0, 0, {}]]], "class_name": "Activation", "config": {"name": "Block35_2_Branch_1_Conv2d_0b_3x3_Activation", "trainable": false, "dtype": "float32", "activation": "relu"}}, {"name": "Block35_2_Branch_2_Conv2d_0c_3x3_Activation", "inbound_nodes": [[["Block35_2_Branch_2_Conv2d_0c_3x3_BatchNorm", 0, 0, {}]]], "class_name": "Activation", "config": {"name": "Block35_2_Branch_2_Conv2d_0c_3x3_Activation", "trainable": false, "dtype": "float32", "activation": "relu"}}, {"name": "Block35_2_Concatenate", "inbound_nodes": [[["Block35_2_Branch_0_Conv2d_1x1_Activation", 0, 0, {}], ["Block35_2_Branch_1_Conv2d_0b_3x3_Activation", 0, 0, {}], ["Block35_2_Branch_2_Conv2d_0c_3x3_Activation", 0, 0, {}]]], "class_name": "Concatenate", "config": {"name": "Block35_2_Concatenate", "trainable": false, "dtype": "float32", "axis": 3}}, {"name": "Block35_2_Conv2d_1x1", "inbound_nodes": [[["Block35_2_Concatenate", 0, 0, {}]]], "class_name": "Conv2D", "config": {"kernel_initializer": {"class_name": "VarianceScaling", "config": {"mode": "fan_avg", "distribution": "uniform", "seed": null, "scale": 1, "dtype": "float32"}}, "dilation_rate": [1, 1], "data_format": "channels_last", "trainable": false, "kernel_regularizer": null, "kernel_size": [1, 1], "activation": "linear", "bias_initializer": {"class_name": "Zeros", "config": {"dtype": "float32"}}, "dtype": "float32", "use_bias": true, "bias_regularizer": null, "kernel_constraint": null, "filters": 256, "strides": [1, 1], "name": "Block35_2_Conv2d_1x1", "bias_constraint": null, "activity_regularizer": null, "padding": "same"}}, {"name": "lambda_2", "inbound_nodes": [[["Block35_2_Conv2d_1x1", 0, 0, {}]]], "class_name": "Lambda", "config": {"output_shape_module": null, "output_shape": [17, 17, 256], "trainable": false, "arguments": {"scale": 0.17}, "function_type": "lambda", "name": "lambda_2", "module": "tensorflow.python.keras.layers.core", "function": ["4wIAAAAAAAAAAgAAAAIAAABDAAAAcwgAAAB8AAB8AQAUUykBTqkAKQLaAXjaBXNjYWxlcgEAAABy\nAQAAAPovQzovVXNlcnMvSVM5NjI3My9EZXNrdG9wL2luY2VwdGlvbl9yZXNuZXRfdjEucHnaB3Nj\nYWxpbmcZAAAAcwIAAAAAAQ==\n", null, null], "dtype": "float32", "output_shape_type": "raw"}}, {"name": "add_2", "inbound_nodes": [[["Block35_1_Activation", 0, 0, {}], ["lambda_2", 0, 0, {}]]], "class_name": "Add", "config": {"name": "add_2", "trainable": false, "dtype": "float32"}}, {"name": "Block35_2_Activation", "inbound_nodes": [[["add_2", 0, 0, {}]]], "class_name": "Activation", "config": {"name": "Block35_2_Activation", "trainable": false, "dtype": "float32", "activation": "relu"}}, {"name": "Block35_3_Branch_2_Conv2d_0a_1x1", "inbound_nodes": [[["Block35_2_Activation", 0, 0, {}]]], "class_name": "Conv2D", "config": {"kernel_initializer": {"class_name": "VarianceScaling", "config": {"mode": "fan_avg", "distribution": "uniform", "seed": null, "scale": 1, "dtype": "float32"}}, "dilation_rate": [1, 1], "data_format": "channels_last", "trainable": false, "kernel_regularizer": null, "kernel_size": [1, 1], "activation": "linear", "bias_initializer": {"class_name": "Zeros", "config": {"dtype": "float32"}}, "dtype": "float32", "use_bias": false, "bias_regularizer": null, "kernel_constraint": null, "filters": 32, "strides": [1, 1], "name": "Block35_3_Branch_2_Conv2d_0a_1x1", "bias_constraint": null, "activity_regularizer": null, "padding": "same"}}, {"name": "Block35_3_Branch_2_Conv2d_0a_1x1_BatchNorm", "inbound_nodes": [[["Block35_3_Branch_2_Conv2d_0a_1x1", 0, 0, {}]]], "class_name": "BatchNormalization", "config": {"center": true, "beta_initializer": {"class_name": "Zeros", "config": {"dtype": "float32"}}, "trainable": false, "beta_constraint": null, "beta_regularizer": null, "gamma_initializer": {"class_name": "Ones", "config": {"dtype": "float32"}}, "scale": false, "epsilon": 0.001, "moving_variance_initializer": {"class_name": "Ones", "config": {"dtype": "float32"}}, "axis": [3], "moving_mean_initializer": {"class_name": "Zeros", "config": {"dtype": "float32"}}, "dtype": "float32", "gamma_constraint": null, "name": "Block35_3_Branch_2_Conv2d_0a_1x1_BatchNorm", "gamma_regularizer": null, "momentum": 0.995}}, {"name": "Block35_3_Branch_2_Conv2d_0a_1x1_Activation", "inbound_nodes": [[["Block35_3_Branch_2_Conv2d_0a_1x1_BatchNorm", 0, 0, {}]]], "class_name": "Activation", "config": {"name": "Block35_3_Branch_2_Conv2d_0a_1x1_Activation", "trainable": false, "dtype": "float32", "activation": "relu"}}, {"name": "Block35_3_Branch_1_Conv2d_0a_1x1", "inbound_nodes": [[["Block35_2_Activation", 0, 0, {}]]], "class_name": "Conv2D", "config": {"kernel_initializer": {"class_name": "VarianceScaling", "config": {"mode": "fan_avg", "distribution": "uniform", "seed": null, "scale": 1, "dtype": "float32"}}, "dilation_rate": [1, 1], "data_format": "channels_last", "trainable": false, "kernel_regularizer": null, "kernel_size": [1, 1], "activation": "linear", "bias_initializer": {"class_name": "Zeros", "config": {"dtype": "float32"}}, "dtype": "float32", "use_bias": false, "bias_regularizer": null, "kernel_constraint": null, "filters": 32, "strides": [1, 1], "name": "Block35_3_Branch_1_Conv2d_0a_1x1", "bias_constraint": null, "activity_regularizer": null, "padding": "same"}}, {"name": "Block35_3_Branch_2_Conv2d_0b_3x3", "inbound_nodes": [[["Block35_3_Branch_2_Conv2d_0a_1x1_Activation", 0, 0, {}]]], "class_name": "Conv2D", "config": {"kernel_initializer": {"class_name": "VarianceScaling", "config": {"mode": "fan_avg", "distribution": "uniform", "seed": null, "scale": 1, "dtype": "float32"}}, "dilation_rate": [1, 1], "data_format": "channels_last", "trainable": false, "kernel_regularizer": null, "kernel_size": [3, 3], "activation": "linear", "bias_initializer": {"class_name": "Zeros", "config": {"dtype": "float32"}}, "dtype": "float32", "use_bias": false, "bias_regularizer": null, "kernel_constraint": null, "filters": 32, "strides": [1, 1], "name": "Block35_3_Branch_2_Conv2d_0b_3x3", "bias_constraint": null, "activity_regularizer": null, "padding": "same"}}, {"name": "Block35_3_Branch_1_Conv2d_0a_1x1_BatchNorm", "inbound_nodes": [[["Block35_3_Branch_1_Conv2d_0a_1x1", 0, 0, {}]]], "class_name": "BatchNormalization", "config": {"center": true, "beta_initializer": {"class_name": "Zeros", "config": {"dtype": "float32"}}, "trainable": false, "beta_constraint": null, "beta_regularizer": null, "gamma_initializer": {"class_name": "Ones", "config": {"dtype": "float32"}}, "scale": false, "epsilon": 0.001, "moving_variance_initializer": {"class_name": "Ones", "config": {"dtype": "float32"}}, "axis": [3], "moving_mean_initializer": {"class_name": "Zeros", "config": {"dtype": "float32"}}, "dtype": "float32", "gamma_constraint": null, "name": "Block35_3_Branch_1_Conv2d_0a_1x1_BatchNorm", "gamma_regularizer": null, "momentum": 0.995}}, {"name": "Block35_3_Branch_2_Conv2d_0b_3x3_BatchNorm", "inbound_nodes": [[["Block35_3_Branch_2_Conv2d_0b_3x3", 0, 0, {}]]], "class_name": "BatchNormalization", "config": {"center": true, "beta_initializer": {"class_name": "Zeros", "config": {"dtype": "float32"}}, "trainable": false, "beta_constraint": null, "beta_regularizer": null, "gamma_initializer": {"class_name": "Ones", "config": {"dtype": "float32"}}, "scale": false, "epsilon": 0.001, "moving_variance_initializer": {"class_name": "Ones", "config": {"dtype": "float32"}}, "axis": [3], "moving_mean_initializer": {"class_name": "Zeros", "config": {"dtype": "float32"}}, "dtype": "float32", "gamma_constraint": null, "name": "Block35_3_Branch_2_Conv2d_0b_3x3_BatchNorm", "gamma_regularizer": null, "momentum": 0.995}}, {"name": "Block35_3_Branch_1_Conv2d_0a_1x1_Activation", "inbound_nodes": [[["Block35_3_Branch_1_Conv2d_0a_1x1_BatchNorm", 0, 0, {}]]], "class_name": "Activation", "config": {"name": "Block35_3_Branch_1_Conv2d_0a_1x1_Activation", "trainable": false, "dtype": "float32", "activation": "relu"}}, {"name": "Block35_3_Branch_2_Conv2d_0b_3x3_Activation", "inbound_nodes": [[["Block35_3_Branch_2_Conv2d_0b_3x3_BatchNorm", 0, 0, {}]]], "class_name": "Activation", "config": {"name": "Block35_3_Branch_2_Conv2d_0b_3x3_Activation", "trainable": false, "dtype": "float32", "activation": "relu"}}, {"name": "Block35_3_Branch_0_Conv2d_1x1", "inbound_nodes": [[["Block35_2_Activation", 0, 0, {}]]], "class_name": "Conv2D", "config": {"kernel_initializer": {"class_name": "VarianceScaling", "config": {"mode": "fan_avg", "distribution": "uniform", "seed": null, "scale": 1, "dtype": "float32"}}, "dilation_rate": [1, 1], "data_format": "channels_last", "trainable": false, "kernel_regularizer": null, "kernel_size": [1, 1], "activation": "linear", "bias_initializer": {"class_name": "Zeros", "config": {"dtype": "float32"}}, "dtype": "float32", "use_bias": false, "bias_regularizer": null, "kernel_constraint": null, "filters": 32, "strides": [1, 1], "name": "Block35_3_Branch_0_Conv2d_1x1", "bias_constraint": null, "activity_regularizer": null, "padding": "same"}}, {"name": "Block35_3_Branch_1_Conv2d_0b_3x3", "inbound_nodes": [[["Block35_3_Branch_1_Conv2d_0a_1x1_Activation", 0, 0, {}]]], "class_name": "Conv2D", "config": {"kernel_initializer": {"class_name": "VarianceScaling", "config": {"mode": "fan_avg", "distribution": "uniform", "seed": null, "scale": 1, "dtype": "float32"}}, "dilation_rate": [1, 1], "data_format": "channels_last", "trainable": false, "kernel_regularizer": null, "kernel_size": [3, 3], "activation": "linear", "bias_initializer": {"class_name": "Zeros", "config": {"dtype": "float32"}}, "dtype": "float32", "use_bias": false, "bias_regularizer": null, "kernel_constraint": null, "filters": 32, "strides": [1, 1], "name": "Block35_3_Branch_1_Conv2d_0b_3x3", "bias_constraint": null, "activity_regularizer": null, "padding": "same"}}, {"name": "Block35_3_Branch_2_Conv2d_0c_3x3", "inbound_nodes": [[["Block35_3_Branch_2_Conv2d_0b_3x3_Activation", 0, 0, {}]]], "class_name": "Conv2D", "config": {"kernel_initializer": {"class_name": "VarianceScaling", "config": {"mode": "fan_avg", "distribution": "uniform", "seed": null, "scale": 1, "dtype": "float32"}}, "dilation_rate": [1, 1], "data_format": "channels_last", "trainable": false, "kernel_regularizer": null, "kernel_size": [3, 3], "activation": "linear", "bias_initializer": {"class_name": "Zeros", "config": {"dtype": "float32"}}, "dtype": "float32", "use_bias": false, "bias_regularizer": null, "kernel_constraint": null, "filters": 32, "strides": [1, 1], "name": "Block35_3_Branch_2_Conv2d_0c_3x3", "bias_constraint": null, "activity_regularizer": null, "padding": "same"}}, {"name": "Block35_3_Branch_0_Conv2d_1x1_BatchNorm", "inbound_nodes": [[["Block35_3_Branch_0_Conv2d_1x1", 0, 0, {}]]], "class_name": "BatchNormalization", "config": {"center": true, "beta_initializer": {"class_name": "Zeros", "config": {"dtype": "float32"}}, "trainable": false, "beta_constraint": null, "beta_regularizer": null, "gamma_initializer": {"class_name": "Ones", "config": {"dtype": "float32"}}, "scale": false, "epsilon": 0.001, "moving_variance_initializer": {"class_name": "Ones", "config": {"dtype": "float32"}}, "axis": [3], "moving_mean_initializer": {"class_name": "Zeros", "config": {"dtype": "float32"}}, "dtype": "float32", "gamma_constraint": null, "name": "Block35_3_Branch_0_Conv2d_1x1_BatchNorm", "gamma_regularizer": null, "momentum": 0.995}}, {"name": "Block35_3_Branch_1_Conv2d_0b_3x3_BatchNorm", "inbound_nodes": [[["Block35_3_Branch_1_Conv2d_0b_3x3", 0, 0, {}]]], "class_name": "BatchNormalization", "config": {"center": true, "beta_initializer": {"class_name": "Zeros", "config": {"dtype": "float32"}}, "trainable": false, "beta_constraint": null, "beta_regularizer": null, "gamma_initializer": {"class_name": "Ones", "config": {"dtype": "float32"}}, "scale": false, "epsilon": 0.001, "moving_variance_initializer": {"class_name": "Ones", "config": {"dtype": "float32"}}, "axis": [3], "moving_mean_initializer": {"class_name": "Zeros", "config": {"dtype": "float32"}}, "dtype": "float32", "gamma_constraint": null, "name": "Block35_3_Branch_1_Conv2d_0b_3x3_BatchNorm", "gamma_regularizer": null, "momentum": 0.995}}, {"name": "Block35_3_Branch_2_Conv2d_0c_3x3_BatchNorm", "inbound_nodes": [[["Block35_3_Branch_2_Conv2d_0c_3x3", 0, 0, {}]]], "class_name": "BatchNormalization", "config": {"center": true, "beta_initializer": {"class_name": "Zeros", "config": {"dtype": "float32"}}, "trainable": false, "beta_constraint": null, "beta_regularizer": null, "gamma_initializer": {"class_name": "Ones", "config": {"dtype": "float32"}}, "scale": false, "epsilon": 0.001, "moving_variance_initializer": {"class_name": "Ones", "config": {"dtype": "float32"}}, "axis": [3], "moving_mean_initializer": {"class_name": "Zeros", "config": {"dtype": "float32"}}, "dtype": "float32", "gamma_constraint": null, "name": "Block35_3_Branch_2_Conv2d_0c_3x3_BatchNorm", "gamma_regularizer": null, "momentum": 0.995}}, {"name": "Block35_3_Branch_0_Conv2d_1x1_Activation", "inbound_nodes": [[["Block35_3_Branch_0_Conv2d_1x1_BatchNorm", 0, 0, {}]]], "class_name": "Activation", "config": {"name": "Block35_3_Branch_0_Conv2d_1x1_Activation", "trainable": false, "dtype": "float32", "activation": "relu"}}, {"name": "Block35_3_Branch_1_Conv2d_0b_3x3_Activation", "inbound_nodes": [[["Block35_3_Branch_1_Conv2d_0b_3x3_BatchNorm", 0, 0, {}]]], "class_name": "Activation", "config": {"name": "Block35_3_Branch_1_Conv2d_0b_3x3_Activation", "trainable": false, "dtype": "float32", "activation": "relu"}}, {"name": "Block35_3_Branch_2_Conv2d_0c_3x3_Activation", "inbound_nodes": [[["Block35_3_Branch_2_Conv2d_0c_3x3_BatchNorm", 0, 0, {}]]], "class_name": "Activation", "config": {"name": "Block35_3_Branch_2_Conv2d_0c_3x3_Activation", "trainable": false, "dtype": "float32", "activation": "relu"}}, {"name": "Block35_3_Concatenate", "inbound_nodes": [[["Block35_3_Branch_0_Conv2d_1x1_Activation", 0, 0, {}], ["Block35_3_Branch_1_Conv2d_0b_3x3_Activation", 0, 0, {}], ["Block35_3_Branch_2_Conv2d_0c_3x3_Activation", 0, 0, {}]]], "class_name": "Concatenate", "config": {"name": "Block35_3_Concatenate", "trainable": false, "dtype": "float32", "axis": 3}}, {"name": "Block35_3_Conv2d_1x1", "inbound_nodes": [[["Block35_3_Concatenate", 0, 0, {}]]], "class_name": "Conv2D", "config": {"kernel_initializer": {"class_name": "VarianceScaling", "config": {"mode": "fan_avg", "distribution": "uniform", "seed": null, "scale": 1, "dtype": "float32"}}, "dilation_rate": [1, 1], "data_format": "channels_last", "trainable": false, "kernel_regularizer": null, "kernel_size": [1, 1], "activation": "linear", "bias_initializer": {"class_name": "Zeros", "config": {"dtype": "float32"}}, "dtype": "float32", "use_bias": true, "bias_regularizer": null, "kernel_constraint": null, "filters": 256, "strides": [1, 1], "name": "Block35_3_Conv2d_1x1", "bias_constraint": null, "activity_regularizer": null, "padding": "same"}}, {"name": "lambda_3", "inbound_nodes": [[["Block35_3_Conv2d_1x1", 0, 0, {}]]], "class_name": "Lambda", "config": {"output_shape_module": null, "output_shape": [17, 17, 256], "trainable": false, "arguments": {"scale": 0.17}, "function_type": "lambda", "name": "lambda_3", "module": "tensorflow.python.keras.layers.core", "function": ["4wIAAAAAAAAAAgAAAAIAAABDAAAAcwgAAAB8AAB8AQAUUykBTqkAKQLaAXjaBXNjYWxlcgEAAABy\nAQAAAPovQzovVXNlcnMvSVM5NjI3My9EZXNrdG9wL2luY2VwdGlvbl9yZXNuZXRfdjEucHnaB3Nj\nYWxpbmcZAAAAcwIAAAAAAQ==\n", null, null], "dtype": "float32", "output_shape_type": "raw"}}, {"name": "add_3", "inbound_nodes": [[["Block35_2_Activation", 0, 0, {}], ["lambda_3", 0, 0, {}]]], "class_name": "Add", "config": {"name": "add_3", "trainable": false, "dtype": "float32"}}, {"name": "Block35_3_Activation", "inbound_nodes": [[["add_3", 0, 0, {}]]], "class_name": "Activation", "config": {"name": "Block35_3_Activation", "trainable": false, "dtype": "float32", "activation": "relu"}}, {"name": "Block35_4_Branch_2_Conv2d_0a_1x1", "inbound_nodes": [[["Block35_3_Activation", 0, 0, {}]]], "class_name": "Conv2D", "config": {"kernel_initializer": {"class_name": "VarianceScaling", "config": {"mode": "fan_avg", "distribution": "uniform", "seed": null, "scale": 1, "dtype": "float32"}}, "dilation_rate": [1, 1], "data_format": "channels_last", "trainable": false, "kernel_regularizer": null, "kernel_size": [1, 1], "activation": "linear", "bias_initializer": {"class_name": "Zeros", "config": {"dtype": "float32"}}, "dtype": "float32", "use_bias": false, "bias_regularizer": null, "kernel_constraint": null, "filters": 32, "strides": [1, 1], "name": "Block35_4_Branch_2_Conv2d_0a_1x1", "bias_constraint": null, "activity_regularizer": null, "padding": "same"}}, {"name": "Block35_4_Branch_2_Conv2d_0a_1x1_BatchNorm", "inbound_nodes": [[["Block35_4_Branch_2_Conv2d_0a_1x1", 0, 0, {}]]], "class_name": "BatchNormalization", "config": {"center": true, "beta_initializer": {"class_name": "Zeros", "config": {"dtype": "float32"}}, "trainable": false, "beta_constraint": null, "beta_regularizer": null, "gamma_initializer": {"class_name": "Ones", "config": {"dtype": "float32"}}, "scale": false, "epsilon": 0.001, "moving_variance_initializer": {"class_name": "Ones", "config": {"dtype": "float32"}}, "axis": [3], "moving_mean_initializer": {"class_name": "Zeros", "config": {"dtype": "float32"}}, "dtype": "float32", "gamma_constraint": null, "name": "Block35_4_Branch_2_Conv2d_0a_1x1_BatchNorm", "gamma_regularizer": null, "momentum": 0.995}}, {"name": "Block35_4_Branch_2_Conv2d_0a_1x1_Activation", "inbound_nodes": [[["Block35_4_Branch_2_Conv2d_0a_1x1_BatchNorm", 0, 0, {}]]], "class_name": "Activation", "config": {"name": "Block35_4_Branch_2_Conv2d_0a_1x1_Activation", "trainable": false, "dtype": "float32", "activation": "relu"}}, {"name": "Block35_4_Branch_1_Conv2d_0a_1x1", "inbound_nodes": [[["Block35_3_Activation", 0, 0, {}]]], "class_name": "Conv2D", "config": {"kernel_initializer": {"class_name": "VarianceScaling", "config": {"mode": "fan_avg", "distribution": "uniform", "seed": null, "scale": 1, "dtype": "float32"}}, "dilation_rate": [1, 1], "data_format": "channels_last", "trainable": false, "kernel_regularizer": null, "kernel_size": [1, 1], "activation": "linear", "bias_initializer": {"class_name": "Zeros", "config": {"dtype": "float32"}}, "dtype": "float32", "use_bias": false, "bias_regularizer": null, "kernel_constraint": null, "filters": 32, "strides": [1, 1], "name": "Block35_4_Branch_1_Conv2d_0a_1x1", "bias_constraint": null, "activity_regularizer": null, "padding": "same"}}, {"name": "Block35_4_Branch_2_Conv2d_0b_3x3", "inbound_nodes": [[["Block35_4_Branch_2_Conv2d_0a_1x1_Activation", 0, 0, {}]]], "class_name": "Conv2D", "config": {"kernel_initializer": {"class_name": "VarianceScaling", "config": {"mode": "fan_avg", "distribution": "uniform", "seed": null, "scale": 1, "dtype": "float32"}}, "dilation_rate": [1, 1], "data_format": "channels_last", "trainable": false, "kernel_regularizer": null, "kernel_size": [3, 3], "activation": "linear", "bias_initializer": {"class_name": "Zeros", "config": {"dtype": "float32"}}, "dtype": "float32", "use_bias": false, "bias_regularizer": null, "kernel_constraint": null, "filters": 32, "strides": [1, 1], "name": "Block35_4_Branch_2_Conv2d_0b_3x3", "bias_constraint": null, "activity_regularizer": null, "padding": "same"}}, {"name": "Block35_4_Branch_1_Conv2d_0a_1x1_BatchNorm", "inbound_nodes": [[["Block35_4_Branch_1_Conv2d_0a_1x1", 0, 0, {}]]], "class_name": "BatchNormalization", "config": {"center": true, "beta_initializer": {"class_name": "Zeros", "config": {"dtype": "float32"}}, "trainable": false, "beta_constraint": null, "beta_regularizer": null, "gamma_initializer": {"class_name": "Ones", "config": {"dtype": "float32"}}, "scale": false, "epsilon": 0.001, "moving_variance_initializer": {"class_name": "Ones", "config": {"dtype": "float32"}}, "axis": [3], "moving_mean_initializer": {"class_name": "Zeros", "config": {"dtype": "float32"}}, "dtype": "float32", "gamma_constraint": null, "name": "Block35_4_Branch_1_Conv2d_0a_1x1_BatchNorm", "gamma_regularizer": null, "momentum": 0.995}}, {"name": "Block35_4_Branch_2_Conv2d_0b_3x3_BatchNorm", "inbound_nodes": [[["Block35_4_Branch_2_Conv2d_0b_3x3", 0, 0, {}]]], "class_name": "BatchNormalization", "config": {"center": true, "beta_initializer": {"class_name": "Zeros", "config": {"dtype": "float32"}}, "trainable": false, "beta_constraint": null, "beta_regularizer": null, "gamma_initializer": {"class_name": "Ones", "config": {"dtype": "float32"}}, "scale": false, "epsilon": 0.001, "moving_variance_initializer": {"class_name": "Ones", "config": {"dtype": "float32"}}, "axis": [3], "moving_mean_initializer": {"class_name": "Zeros", "config": {"dtype": "float32"}}, "dtype": "float32", "gamma_constraint": null, "name": "Block35_4_Branch_2_Conv2d_0b_3x3_BatchNorm", "gamma_regularizer": null, "momentum": 0.995}}, {"name": "Block35_4_Branch_1_Conv2d_0a_1x1_Activation", "inbound_nodes": [[["Block35_4_Branch_1_Conv2d_0a_1x1_BatchNorm", 0, 0, {}]]], "class_name": "Activation", "config": {"name": "Block35_4_Branch_1_Conv2d_0a_1x1_Activation", "trainable": false, "dtype": "float32", "activation": "relu"}}, {"name": "Block35_4_Branch_2_Conv2d_0b_3x3_Activation", "inbound_nodes": [[["Block35_4_Branch_2_Conv2d_0b_3x3_BatchNorm", 0, 0, {}]]], "class_name": "Activation", "config": {"name": "Block35_4_Branch_2_Conv2d_0b_3x3_Activation", "trainable": false, "dtype": "float32", "activation": "relu"}}, {"name": "Block35_4_Branch_0_Conv2d_1x1", "inbound_nodes": [[["Block35_3_Activation", 0, 0, {}]]], "class_name": "Conv2D", "config": {"kernel_initializer": {"class_name": "VarianceScaling", "config": {"mode": "fan_avg", "distribution": "uniform", "seed": null, "scale": 1, "dtype": "float32"}}, "dilation_rate": [1, 1], "data_format": "channels_last", "trainable": false, "kernel_regularizer": null, "kernel_size": [1, 1], "activation": "linear", "bias_initializer": {"class_name": "Zeros", "config": {"dtype": "float32"}}, "dtype": "float32", "use_bias": false, "bias_regularizer": null, "kernel_constraint": null, "filters": 32, "strides": [1, 1], "name": "Block35_4_Branch_0_Conv2d_1x1", "bias_constraint": null, "activity_regularizer": null, "padding": "same"}}, {"name": "Block35_4_Branch_1_Conv2d_0b_3x3", "inbound_nodes": [[["Block35_4_Branch_1_Conv2d_0a_1x1_Activation", 0, 0, {}]]], "class_name": "Conv2D", "config": {"kernel_initializer": {"class_name": "VarianceScaling", "config": {"mode": "fan_avg", "distribution": "uniform", "seed": null, "scale": 1, "dtype": "float32"}}, "dilation_rate": [1, 1], "data_format": "channels_last", "trainable": false, "kernel_regularizer": null, "kernel_size": [3, 3], "activation": "linear", "bias_initializer": {"class_name": "Zeros", "config": {"dtype": "float32"}}, "dtype": "float32", "use_bias": false, "bias_regularizer": null, "kernel_constraint": null, "filters": 32, "strides": [1, 1], "name": "Block35_4_Branch_1_Conv2d_0b_3x3", "bias_constraint": null, "activity_regularizer": null, "padding": "same"}}, {"name": "Block35_4_Branch_2_Conv2d_0c_3x3", "inbound_nodes": [[["Block35_4_Branch_2_Conv2d_0b_3x3_Activation", 0, 0, {}]]], "class_name": "Conv2D", "config": {"kernel_initializer": {"class_name": "VarianceScaling", "config": {"mode": "fan_avg", "distribution": "uniform", "seed": null, "scale": 1, "dtype": "float32"}}, "dilation_rate": [1, 1], "data_format": "channels_last", "trainable": false, "kernel_regularizer": null, "kernel_size": [3, 3], "activation": "linear", "bias_initializer": {"class_name": "Zeros", "config": {"dtype": "float32"}}, "dtype": "float32", "use_bias": false, "bias_regularizer": null, "kernel_constraint": null, "filters": 32, "strides": [1, 1], "name": "Block35_4_Branch_2_Conv2d_0c_3x3", "bias_constraint": null, "activity_regularizer": null, "padding": "same"}}, {"name": "Block35_4_Branch_0_Conv2d_1x1_BatchNorm", "inbound_nodes": [[["Block35_4_Branch_0_Conv2d_1x1", 0, 0, {}]]], "class_name": "BatchNormalization", "config": {"center": true, "beta_initializer": {"class_name": "Zeros", "config": {"dtype": "float32"}}, "trainable": false, "beta_constraint": null, "beta_regularizer": null, "gamma_initializer": {"class_name": "Ones", "config": {"dtype": "float32"}}, "scale": false, "epsilon": 0.001, "moving_variance_initializer": {"class_name": "Ones", "config": {"dtype": "float32"}}, "axis": [3], "moving_mean_initializer": {"class_name": "Zeros", "config": {"dtype": "float32"}}, "dtype": "float32", "gamma_constraint": null, "name": "Block35_4_Branch_0_Conv2d_1x1_BatchNorm", "gamma_regularizer": null, "momentum": 0.995}}, {"name": "Block35_4_Branch_1_Conv2d_0b_3x3_BatchNorm", "inbound_nodes": [[["Block35_4_Branch_1_Conv2d_0b_3x3", 0, 0, {}]]], "class_name": "BatchNormalization", "config": {"center": true, "beta_initializer": {"class_name": "Zeros", "config": {"dtype": "float32"}}, "trainable": false, "beta_constraint": null, "beta_regularizer": null, "gamma_initializer": {"class_name": "Ones", "config": {"dtype": "float32"}}, "scale": false, "epsilon": 0.001, "moving_variance_initializer": {"class_name": "Ones", "config": {"dtype": "float32"}}, "axis": [3], "moving_mean_initializer": {"class_name": "Zeros", "config": {"dtype": "float32"}}, "dtype": "float32", "gamma_constraint": null, "name": "Block35_4_Branch_1_Conv2d_0b_3x3_BatchNorm", "gamma_regularizer": null, "momentum": 0.995}}, {"name": "Block35_4_Branch_2_Conv2d_0c_3x3_BatchNorm", "inbound_nodes": [[["Block35_4_Branch_2_Conv2d_0c_3x3", 0, 0, {}]]], "class_name": "BatchNormalization", "config": {"center": true, "beta_initializer": {"class_name": "Zeros", "config": {"dtype": "float32"}}, "trainable": false, "beta_constraint": null, "beta_regularizer": null, "gamma_initializer": {"class_name": "Ones", "config": {"dtype": "float32"}}, "scale": false, "epsilon": 0.001, "moving_variance_initializer": {"class_name": "Ones", "config": {"dtype": "float32"}}, "axis": [3], "moving_mean_initializer": {"class_name": "Zeros", "config": {"dtype": "float32"}}, "dtype": "float32", "gamma_constraint": null, "name": "Block35_4_Branch_2_Conv2d_0c_3x3_BatchNorm", "gamma_regularizer": null, "momentum": 0.995}}, {"name": "Block35_4_Branch_0_Conv2d_1x1_Activation", "inbound_nodes": [[["Block35_4_Branch_0_Conv2d_1x1_BatchNorm", 0, 0, {}]]], "class_name": "Activation", "config": {"name": "Block35_4_Branch_0_Conv2d_1x1_Activation", "trainable": false, "dtype": "float32", "activation": "relu"}}, {"name": "Block35_4_Branch_1_Conv2d_0b_3x3_Activation", "inbound_nodes": [[["Block35_4_Branch_1_Conv2d_0b_3x3_BatchNorm", 0, 0, {}]]], "class_name": "Activation", "config": {"name": "Block35_4_Branch_1_Conv2d_0b_3x3_Activation", "trainable": false, "dtype": "float32", "activation": "relu"}}, {"name": "Block35_4_Branch_2_Conv2d_0c_3x3_Activation", "inbound_nodes": [[["Block35_4_Branch_2_Conv2d_0c_3x3_BatchNorm", 0, 0, {}]]], "class_name": "Activation", "config": {"name": "Block35_4_Branch_2_Conv2d_0c_3x3_Activation", "trainable": false, "dtype": "float32", "activation": "relu"}}, {"name": "Block35_4_Concatenate", "inbound_nodes": [[["Block35_4_Branch_0_Conv2d_1x1_Activation", 0, 0, {}], ["Block35_4_Branch_1_Conv2d_0b_3x3_Activation", 0, 0, {}], ["Block35_4_Branch_2_Conv2d_0c_3x3_Activation", 0, 0, {}]]], "class_name": "Concatenate", "config": {"name": "Block35_4_Concatenate", "trainable": false, "dtype": "float32", "axis": 3}}, {"name": "Block35_4_Conv2d_1x1", "inbound_nodes": [[["Block35_4_Concatenate", 0, 0, {}]]], "class_name": "Conv2D", "config": {"kernel_initializer": {"class_name": "VarianceScaling", "config": {"mode": "fan_avg", "distribution": "uniform", "seed": null, "scale": 1, "dtype": "float32"}}, "dilation_rate": [1, 1], "data_format": "channels_last", "trainable": false, "kernel_regularizer": null, "kernel_size": [1, 1], "activation": "linear", "bias_initializer": {"class_name": "Zeros", "config": {"dtype": "float32"}}, "dtype": "float32", "use_bias": true, "bias_regularizer": null, "kernel_constraint": null, "filters": 256, "strides": [1, 1], "name": "Block35_4_Conv2d_1x1", "bias_constraint": null, "activity_regularizer": null, "padding": "same"}}, {"name": "lambda_4", "inbound_nodes": [[["Block35_4_Conv2d_1x1", 0, 0, {}]]], "class_name": "Lambda", "config": {"output_shape_module": null, "output_shape": [17, 17, 256], "trainable": false, "arguments": {"scale": 0.17}, "function_type": "lambda", "name": "lambda_4", "module": "tensorflow.python.keras.layers.core", "function": ["4wIAAAAAAAAAAgAAAAIAAABDAAAAcwgAAAB8AAB8AQAUUykBTqkAKQLaAXjaBXNjYWxlcgEAAABy\nAQAAAPovQzovVXNlcnMvSVM5NjI3My9EZXNrdG9wL2luY2VwdGlvbl9yZXNuZXRfdjEucHnaB3Nj\nYWxpbmcZAAAAcwIAAAAAAQ==\n", null, null], "dtype": "float32", "output_shape_type": "raw"}}, {"name": "add_4", "inbound_nodes": [[["Block35_3_Activation", 0, 0, {}], ["lambda_4", 0, 0, {}]]], "class_name": "Add", "config": {"name": "add_4", "trainable": false, "dtype": "float32"}}, {"name": "Block35_4_Activation", "inbound_nodes": [[["add_4", 0, 0, {}]]], "class_name": "Activation", "config": {"name": "Block35_4_Activation", "trainable": false, "dtype": "float32", "activation": "relu"}}, {"name": "Block35_5_Branch_2_Conv2d_0a_1x1", "inbound_nodes": [[["Block35_4_Activation", 0, 0, {}]]], "class_name": "Conv2D", "config": {"kernel_initializer": {"class_name": "VarianceScaling", "config": {"mode": "fan_avg", "distribution": "uniform", "seed": null, "scale": 1, "dtype": "float32"}}, "dilation_rate": [1, 1], "data_format": "channels_last", "trainable": false, "kernel_regularizer": null, "kernel_size": [1, 1], "activation": "linear", "bias_initializer": {"class_name": "Zeros", "config": {"dtype": "float32"}}, "dtype": "float32", "use_bias": false, "bias_regularizer": null, "kernel_constraint": null, "filters": 32, "strides": [1, 1], "name": "Block35_5_Branch_2_Conv2d_0a_1x1", "bias_constraint": null, "activity_regularizer": null, "padding": "same"}}, {"name": "Block35_5_Branch_2_Conv2d_0a_1x1_BatchNorm", "inbound_nodes": [[["Block35_5_Branch_2_Conv2d_0a_1x1", 0, 0, {}]]], "class_name": "BatchNormalization", "config": {"center": true, "beta_initializer": {"class_name": "Zeros", "config": {"dtype": "float32"}}, "trainable": false, "beta_constraint": null, "beta_regularizer": null, "gamma_initializer": {"class_name": "Ones", "config": {"dtype": "float32"}}, "scale": false, "epsilon": 0.001, "moving_variance_initializer": {"class_name": "Ones", "config": {"dtype": "float32"}}, "axis": [3], "moving_mean_initializer": {"class_name": "Zeros", "config": {"dtype": "float32"}}, "dtype": "float32", "gamma_constraint": null, "name": "Block35_5_Branch_2_Conv2d_0a_1x1_BatchNorm", "gamma_regularizer": null, "momentum": 0.995}}, {"name": "Block35_5_Branch_2_Conv2d_0a_1x1_Activation", "inbound_nodes": [[["Block35_5_Branch_2_Conv2d_0a_1x1_BatchNorm", 0, 0, {}]]], "class_name": "Activation", "config": {"name": "Block35_5_Branch_2_Conv2d_0a_1x1_Activation", "trainable": false, "dtype": "float32", "activation": "relu"}}, {"name": "Block35_5_Branch_1_Conv2d_0a_1x1", "inbound_nodes": [[["Block35_4_Activation", 0, 0, {}]]], "class_name": "Conv2D", "config": {"kernel_initializer": {"class_name": "VarianceScaling", "config": {"mode": "fan_avg", "distribution": "uniform", "seed": null, "scale": 1, "dtype": "float32"}}, "dilation_rate": [1, 1], "data_format": "channels_last", "trainable": false, "kernel_regularizer": null, "kernel_size": [1, 1], "activation": "linear", "bias_initializer": {"class_name": "Zeros", "config": {"dtype": "float32"}}, "dtype": "float32", "use_bias": false, "bias_regularizer": null, "kernel_constraint": null, "filters": 32, "strides": [1, 1], "name": "Block35_5_Branch_1_Conv2d_0a_1x1", "bias_constraint": null, "activity_regularizer": null, "padding": "same"}}, {"name": "Block35_5_Branch_2_Conv2d_0b_3x3", "inbound_nodes": [[["Block35_5_Branch_2_Conv2d_0a_1x1_Activation", 0, 0, {}]]], "class_name": "Conv2D", "config": {"kernel_initializer": {"class_name": "VarianceScaling", "config": {"mode": "fan_avg", "distribution": "uniform", "seed": null, "scale": 1, "dtype": "float32"}}, "dilation_rate": [1, 1], "data_format": "channels_last", "trainable": false, "kernel_regularizer": null, "kernel_size": [3, 3], "activation": "linear", "bias_initializer": {"class_name": "Zeros", "config": {"dtype": "float32"}}, "dtype": "float32", "use_bias": false, "bias_regularizer": null, "kernel_constraint": null, "filters": 32, "strides": [1, 1], "name": "Block35_5_Branch_2_Conv2d_0b_3x3", "bias_constraint": null, "activity_regularizer": null, "padding": "same"}}, {"name": "Block35_5_Branch_1_Conv2d_0a_1x1_BatchNorm", "inbound_nodes": [[["Block35_5_Branch_1_Conv2d_0a_1x1", 0, 0, {}]]], "class_name": "BatchNormalization", "config": {"center": true, "beta_initializer": {"class_name": "Zeros", "config": {"dtype": "float32"}}, "trainable": false, "beta_constraint": null, "beta_regularizer": null, "gamma_initializer": {"class_name": "Ones", "config": {"dtype": "float32"}}, "scale": false, "epsilon": 0.001, "moving_variance_initializer": {"class_name": "Ones", "config": {"dtype": "float32"}}, "axis": [3], "moving_mean_initializer": {"class_name": "Zeros", "config": {"dtype": "float32"}}, "dtype": "float32", "gamma_constraint": null, "name": "Block35_5_Branch_1_Conv2d_0a_1x1_BatchNorm", "gamma_regularizer": null, "momentum": 0.995}}, {"name": "Block35_5_Branch_2_Conv2d_0b_3x3_BatchNorm", "inbound_nodes": [[["Block35_5_Branch_2_Conv2d_0b_3x3", 0, 0, {}]]], "class_name": "BatchNormalization", "config": {"center": true, "beta_initializer": {"class_name": "Zeros", "config": {"dtype": "float32"}}, "trainable": false, "beta_constraint": null, "beta_regularizer": null, "gamma_initializer": {"class_name": "Ones", "config": {"dtype": "float32"}}, "scale": false, "epsilon": 0.001, "moving_variance_initializer": {"class_name": "Ones", "config": {"dtype": "float32"}}, "axis": [3], "moving_mean_initializer": {"class_name": "Zeros", "config": {"dtype": "float32"}}, "dtype": "float32", "gamma_constraint": null, "name": "Block35_5_Branch_2_Conv2d_0b_3x3_BatchNorm", "gamma_regularizer": null, "momentum": 0.995}}, {"name": "Block35_5_Branch_1_Conv2d_0a_1x1_Activation", "inbound_nodes": [[["Block35_5_Branch_1_Conv2d_0a_1x1_BatchNorm", 0, 0, {}]]], "class_name": "Activation", "config": {"name": "Block35_5_Branch_1_Conv2d_0a_1x1_Activation", "trainable": false, "dtype": "float32", "activation": "relu"}}, {"name": "Block35_5_Branch_2_Conv2d_0b_3x3_Activation", "inbound_nodes": [[["Block35_5_Branch_2_Conv2d_0b_3x3_BatchNorm", 0, 0, {}]]], "class_name": "Activation", "config": {"name": "Block35_5_Branch_2_Conv2d_0b_3x3_Activation", "trainable": false, "dtype": "float32", "activation": "relu"}}, {"name": "Block35_5_Branch_0_Conv2d_1x1", "inbound_nodes": [[["Block35_4_Activation", 0, 0, {}]]], "class_name": "Conv2D", "config": {"kernel_initializer": {"class_name": "VarianceScaling", "config": {"mode": "fan_avg", "distribution": "uniform", "seed": null, "scale": 1, "dtype": "float32"}}, "dilation_rate": [1, 1], "data_format": "channels_last", "trainable": false, "kernel_regularizer": null, "kernel_size": [1, 1], "activation": "linear", "bias_initializer": {"class_name": "Zeros", "config": {"dtype": "float32"}}, "dtype": "float32", "use_bias": false, "bias_regularizer": null, "kernel_constraint": null, "filters": 32, "strides": [1, 1], "name": "Block35_5_Branch_0_Conv2d_1x1", "bias_constraint": null, "activity_regularizer": null, "padding": "same"}}, {"name": "Block35_5_Branch_1_Conv2d_0b_3x3", "inbound_nodes": [[["Block35_5_Branch_1_Conv2d_0a_1x1_Activation", 0, 0, {}]]], "class_name": "Conv2D", "config": {"kernel_initializer": {"class_name": "VarianceScaling", "config": {"mode": "fan_avg", "distribution": "uniform", "seed": null, "scale": 1, "dtype": "float32"}}, "dilation_rate": [1, 1], "data_format": "channels_last", "trainable": false, "kernel_regularizer": null, "kernel_size": [3, 3], "activation": "linear", "bias_initializer": {"class_name": "Zeros", "config": {"dtype": "float32"}}, "dtype": "float32", "use_bias": false, "bias_regularizer": null, "kernel_constraint": null, "filters": 32, "strides": [1, 1], "name": "Block35_5_Branch_1_Conv2d_0b_3x3", "bias_constraint": null, "activity_regularizer": null, "padding": "same"}}, {"name": "Block35_5_Branch_2_Conv2d_0c_3x3", "inbound_nodes": [[["Block35_5_Branch_2_Conv2d_0b_3x3_Activation", 0, 0, {}]]], "class_name": "Conv2D", "config": {"kernel_initializer": {"class_name": "VarianceScaling", "config": {"mode": "fan_avg", "distribution": "uniform", "seed": null, "scale": 1, "dtype": "float32"}}, "dilation_rate": [1, 1], "data_format": "channels_last", "trainable": false, "kernel_regularizer": null, "kernel_size": [3, 3], "activation": "linear", "bias_initializer": {"class_name": "Zeros", "config": {"dtype": "float32"}}, "dtype": "float32", "use_bias": false, "bias_regularizer": null, "kernel_constraint": null, "filters": 32, "strides": [1, 1], "name": "Block35_5_Branch_2_Conv2d_0c_3x3", "bias_constraint": null, "activity_regularizer": null, "padding": "same"}}, {"name": "Block35_5_Branch_0_Conv2d_1x1_BatchNorm", "inbound_nodes": [[["Block35_5_Branch_0_Conv2d_1x1", 0, 0, {}]]], "class_name": "BatchNormalization", "config": {"center": true, "beta_initializer": {"class_name": "Zeros", "config": {"dtype": "float32"}}, "trainable": false, "beta_constraint": null, "beta_regularizer": null, "gamma_initializer": {"class_name": "Ones", "config": {"dtype": "float32"}}, "scale": false, "epsilon": 0.001, "moving_variance_initializer": {"class_name": "Ones", "config": {"dtype": "float32"}}, "axis": [3], "moving_mean_initializer": {"class_name": "Zeros", "config": {"dtype": "float32"}}, "dtype": "float32", "gamma_constraint": null, "name": "Block35_5_Branch_0_Conv2d_1x1_BatchNorm", "gamma_regularizer": null, "momentum": 0.995}}, {"name": "Block35_5_Branch_1_Conv2d_0b_3x3_BatchNorm", "inbound_nodes": [[["Block35_5_Branch_1_Conv2d_0b_3x3", 0, 0, {}]]], "class_name": "BatchNormalization", "config": {"center": true, "beta_initializer": {"class_name": "Zeros", "config": {"dtype": "float32"}}, "trainable": false, "beta_constraint": null, "beta_regularizer": null, "gamma_initializer": {"class_name": "Ones", "config": {"dtype": "float32"}}, "scale": false, "epsilon": 0.001, "moving_variance_initializer": {"class_name": "Ones", "config": {"dtype": "float32"}}, "axis": [3], "moving_mean_initializer": {"class_name": "Zeros", "config": {"dtype": "float32"}}, "dtype": "float32", "gamma_constraint": null, "name": "Block35_5_Branch_1_Conv2d_0b_3x3_BatchNorm", "gamma_regularizer": null, "momentum": 0.995}}, {"name": "Block35_5_Branch_2_Conv2d_0c_3x3_BatchNorm", "inbound_nodes": [[["Block35_5_Branch_2_Conv2d_0c_3x3", 0, 0, {}]]], "class_name": "BatchNormalization", "config": {"center": true, "beta_initializer": {"class_name": "Zeros", "config": {"dtype": "float32"}}, "trainable": false, "beta_constraint": null, "beta_regularizer": null, "gamma_initializer": {"class_name": "Ones", "config": {"dtype": "float32"}}, "scale": false, "epsilon": 0.001, "moving_variance_initializer": {"class_name": "Ones", "config": {"dtype": "float32"}}, "axis": [3], "moving_mean_initializer": {"class_name": "Zeros", "config": {"dtype": "float32"}}, "dtype": "float32", "gamma_constraint": null, "name": "Block35_5_Branch_2_Conv2d_0c_3x3_BatchNorm", "gamma_regularizer": null, "momentum": 0.995}}, {"name": "Block35_5_Branch_0_Conv2d_1x1_Activation", "inbound_nodes": [[["Block35_5_Branch_0_Conv2d_1x1_BatchNorm", 0, 0, {}]]], "class_name": "Activation", "config": {"name": "Block35_5_Branch_0_Conv2d_1x1_Activation", "trainable": false, "dtype": "float32", "activation": "relu"}}, {"name": "Block35_5_Branch_1_Conv2d_0b_3x3_Activation", "inbound_nodes": [[["Block35_5_Branch_1_Conv2d_0b_3x3_BatchNorm", 0, 0, {}]]], "class_name": "Activation", "config": {"name": "Block35_5_Branch_1_Conv2d_0b_3x3_Activation", "trainable": false, "dtype": "float32", "activation": "relu"}}, {"name": "Block35_5_Branch_2_Conv2d_0c_3x3_Activation", "inbound_nodes": [[["Block35_5_Branch_2_Conv2d_0c_3x3_BatchNorm", 0, 0, {}]]], "class_name": "Activation", "config": {"name": "Block35_5_Branch_2_Conv2d_0c_3x3_Activation", "trainable": false, "dtype": "float32", "activation": "relu"}}, {"name": "Block35_5_Concatenate", "inbound_nodes": [[["Block35_5_Branch_0_Conv2d_1x1_Activation", 0, 0, {}], ["Block35_5_Branch_1_Conv2d_0b_3x3_Activation", 0, 0, {}], ["Block35_5_Branch_2_Conv2d_0c_3x3_Activation", 0, 0, {}]]], "class_name": "Concatenate", "config": {"name": "Block35_5_Concatenate", "trainable": false, "dtype": "float32", "axis": 3}}, {"name": "Block35_5_Conv2d_1x1", "inbound_nodes": [[["Block35_5_Concatenate", 0, 0, {}]]], "class_name": "Conv2D", "config": {"kernel_initializer": {"class_name": "VarianceScaling", "config": {"mode": "fan_avg", "distribution": "uniform", "seed": null, "scale": 1, "dtype": "float32"}}, "dilation_rate": [1, 1], "data_format": "channels_last", "trainable": false, "kernel_regularizer": null, "kernel_size": [1, 1], "activation": "linear", "bias_initializer": {"class_name": "Zeros", "config": {"dtype": "float32"}}, "dtype": "float32", "use_bias": true, "bias_regularizer": null, "kernel_constraint": null, "filters": 256, "strides": [1, 1], "name": "Block35_5_Conv2d_1x1", "bias_constraint": null, "activity_regularizer": null, "padding": "same"}}, {"name": "lambda_5", "inbound_nodes": [[["Block35_5_Conv2d_1x1", 0, 0, {}]]], "class_name": "Lambda", "config": {"output_shape_module": null, "output_shape": [17, 17, 256], "trainable": false, "arguments": {"scale": 0.17}, "function_type": "lambda", "name": "lambda_5", "module": "tensorflow.python.keras.layers.core", "function": ["4wIAAAAAAAAAAgAAAAIAAABDAAAAcwgAAAB8AAB8AQAUUykBTqkAKQLaAXjaBXNjYWxlcgEAAABy\nAQAAAPovQzovVXNlcnMvSVM5NjI3My9EZXNrdG9wL2luY2VwdGlvbl9yZXNuZXRfdjEucHnaB3Nj\nYWxpbmcZAAAAcwIAAAAAAQ==\n", null, null], "dtype": "float32", "output_shape_type": "raw"}}, {"name": "add_5", "inbound_nodes": [[["Block35_4_Activation", 0, 0, {}], ["lambda_5", 0, 0, {}]]], "class_name": "Add", "config": {"name": "add_5", "trainable": false, "dtype": "float32"}}, {"name": "Block35_5_Activation", "inbound_nodes": [[["add_5", 0, 0, {}]]], "class_name": "Activation", "config": {"name": "Block35_5_Activation", "trainable": false, "dtype": "float32", "activation": "relu"}}, {"name": "Mixed_6a_Branch_1_Conv2d_0a_1x1", "inbound_nodes": [[["Block35_5_Activation", 0, 0, {}]]], "class_name": "Conv2D", "config": {"kernel_initializer": {"class_name": "VarianceScaling", "config": {"mode": "fan_avg", "distribution": "uniform", "seed": null, "scale": 1, "dtype": "float32"}}, "dilation_rate": [1, 1], "data_format": "channels_last", "trainable": false, "kernel_regularizer": null, "kernel_size": [1, 1], "activation": "linear", "bias_initializer": {"class_name": "Zeros", "config": {"dtype": "float32"}}, "dtype": "float32", "use_bias": false, "bias_regularizer": null, "kernel_constraint": null, "filters": 192, "strides": [1, 1], "name": "Mixed_6a_Branch_1_Conv2d_0a_1x1", "bias_constraint": null, "activity_regularizer": null, "padding": "same"}}, {"name": "Mixed_6a_Branch_1_Conv2d_0a_1x1_BatchNorm", "inbound_nodes": [[["Mixed_6a_Branch_1_Conv2d_0a_1x1", 0, 0, {}]]], "class_name": "BatchNormalization", "config": {"center": true, "beta_initializer": {"class_name": "Zeros", "config": {"dtype": "float32"}}, "trainable": false, "beta_constraint": null, "beta_regularizer": null, "gamma_initializer": {"class_name": "Ones", "config": {"dtype": "float32"}}, "scale": false, "epsilon": 0.001, "moving_variance_initializer": {"class_name": "Ones", "config": {"dtype": "float32"}}, "axis": [3], "moving_mean_initializer": {"class_name": "Zeros", "config": {"dtype": "float32"}}, "dtype": "float32", "gamma_constraint": null, "name": "Mixed_6a_Branch_1_Conv2d_0a_1x1_BatchNorm", "gamma_regularizer": null, "momentum": 0.995}}, {"name": "Mixed_6a_Branch_1_Conv2d_0a_1x1_Activation", "inbound_nodes": [[["Mixed_6a_Branch_1_Conv2d_0a_1x1_BatchNorm", 0, 0, {}]]], "class_name": "Activation", "config": {"name": "Mixed_6a_Branch_1_Conv2d_0a_1x1_Activation", "trainable": false, "dtype": "float32", "activation": "relu"}}, {"name": "Mixed_6a_Branch_1_Conv2d_0b_3x3", "inbound_nodes": [[["Mixed_6a_Branch_1_Conv2d_0a_1x1_Activation", 0, 0, {}]]], "class_name": "Conv2D", "config": {"kernel_initializer": {"class_name": "VarianceScaling", "config": {"mode": "fan_avg", "distribution": "uniform", "seed": null, "scale": 1, "dtype": "float32"}}, "dilation_rate": [1, 1], "data_format": "channels_last", "trainable": false, "kernel_regularizer": null, "kernel_size": [3, 3], "activation": "linear", "bias_initializer": {"class_name": "Zeros", "config": {"dtype": "float32"}}, "dtype": "float32", "use_bias": false, "bias_regularizer": null, "kernel_constraint": null, "filters": 192, "strides": [1, 1], "name": "Mixed_6a_Branch_1_Conv2d_0b_3x3", "bias_constraint": null, "activity_regularizer": null, "padding": "same"}}, {"name": "Mixed_6a_Branch_1_Conv2d_0b_3x3_BatchNorm", "inbound_nodes": [[["Mixed_6a_Branch_1_Conv2d_0b_3x3", 0, 0, {}]]], "class_name": "BatchNormalization", "config": {"center": true, "beta_initializer": {"class_name": "Zeros", "config": {"dtype": "float32"}}, "trainable": false, "beta_constraint": null, "beta_regularizer": null, "gamma_initializer": {"class_name": "Ones", "config": {"dtype": "float32"}}, "scale": false, "epsilon": 0.001, "moving_variance_initializer": {"class_name": "Ones", "config": {"dtype": "float32"}}, "axis": [3], "moving_mean_initializer": {"class_name": "Zeros", "config": {"dtype": "float32"}}, "dtype": "float32", "gamma_constraint": null, "name": "Mixed_6a_Branch_1_Conv2d_0b_3x3_BatchNorm", "gamma_regularizer": null, "momentum": 0.995}}, {"name": "Mixed_6a_Branch_1_Conv2d_0b_3x3_Activation", "inbound_nodes": [[["Mixed_6a_Branch_1_Conv2d_0b_3x3_BatchNorm", 0, 0, {}]]], "class_name": "Activation", "config": {"name": "Mixed_6a_Branch_1_Conv2d_0b_3x3_Activation", "trainable": false, "dtype": "float32", "activation": "relu"}}, {"name": "Mixed_6a_Branch_0_Conv2d_1a_3x3", "inbound_nodes": [[["Block35_5_Activation", 0, 0, {}]]], "class_name": "Conv2D", "config": {"kernel_initializer": {"class_name": "VarianceScaling", "config": {"mode": "fan_avg", "distribution": "uniform", "seed": null, "scale": 1, "dtype": "float32"}}, "dilation_rate": [1, 1], "data_format": "channels_last", "trainable": false, "kernel_regularizer": null, "kernel_size": [3, 3], "activation": "linear", "bias_initializer": {"class_name": "Zeros", "config": {"dtype": "float32"}}, "dtype": "float32", "use_bias": false, "bias_regularizer": null, "kernel_constraint": null, "filters": 384, "strides": [2, 2], "name": "Mixed_6a_Branch_0_Conv2d_1a_3x3", "bias_constraint": null, "activity_regularizer": null, "padding": "valid"}}, {"name": "Mixed_6a_Branch_1_Conv2d_1a_3x3", "inbound_nodes": [[["Mixed_6a_Branch_1_Conv2d_0b_3x3_Activation", 0, 0, {}]]], "class_name": "Conv2D", "config": {"kernel_initializer": {"class_name": "VarianceScaling", "config": {"mode": "fan_avg", "distribution": "uniform", "seed": null, "scale": 1, "dtype": "float32"}}, "dilation_rate": [1, 1], "data_format": "channels_last", "trainable": false, "kernel_regularizer": null, "kernel_size": [3, 3], "activation": "linear", "bias_initializer": {"class_name": "Zeros", "config": {"dtype": "float32"}}, "dtype": "float32", "use_bias": false, "bias_regularizer": null, "kernel_constraint": null, "filters": 256, "strides": [2, 2], "name": "Mixed_6a_Branch_1_Conv2d_1a_3x3", "bias_constraint": null, "activity_regularizer": null, "padding": "valid"}}, {"name": "Mixed_6a_Branch_0_Conv2d_1a_3x3_BatchNorm", "inbound_nodes": [[["Mixed_6a_Branch_0_Conv2d_1a_3x3", 0, 0, {}]]], "class_name": "BatchNormalization", "config": {"center": true, "beta_initializer": {"class_name": "Zeros", "config": {"dtype": "float32"}}, "trainable": false, "beta_constraint": null, "beta_regularizer": null, "gamma_initializer": {"class_name": "Ones", "config": {"dtype": "float32"}}, "scale": false, "epsilon": 0.001, "moving_variance_initializer": {"class_name": "Ones", "config": {"dtype": "float32"}}, "axis": [3], "moving_mean_initializer": {"class_name": "Zeros", "config": {"dtype": "float32"}}, "dtype": "float32", "gamma_constraint": null, "name": "Mixed_6a_Branch_0_Conv2d_1a_3x3_BatchNorm", "gamma_regularizer": null, "momentum": 0.995}}, {"name": "Mixed_6a_Branch_1_Conv2d_1a_3x3_BatchNorm", "inbound_nodes": [[["Mixed_6a_Branch_1_Conv2d_1a_3x3", 0, 0, {}]]], "class_name": "BatchNormalization", "config": {"center": true, "beta_initializer": {"class_name": "Zeros", "config": {"dtype": "float32"}}, "trainable": false, "beta_constraint": null, "beta_regularizer": null, "gamma_initializer": {"class_name": "Ones", "config": {"dtype": "float32"}}, "scale": false, "epsilon": 0.001, "moving_variance_initializer": {"class_name": "Ones", "config": {"dtype": "float32"}}, "axis": [3], "moving_mean_initializer": {"class_name": "Zeros", "config": {"dtype": "float32"}}, "dtype": "float32", "gamma_constraint": null, "name": "Mixed_6a_Branch_1_Conv2d_1a_3x3_BatchNorm", "gamma_regularizer": null, "momentum": 0.995}}, {"name": "Mixed_6a_Branch_0_Conv2d_1a_3x3_Activation", "inbound_nodes": [[["Mixed_6a_Branch_0_Conv2d_1a_3x3_BatchNorm", 0, 0, {}]]], "class_name": "Activation", "config": {"name": "Mixed_6a_Branch_0_Conv2d_1a_3x3_Activation", "trainable": false, "dtype": "float32", "activation": "relu"}}, {"name": "Mixed_6a_Branch_1_Conv2d_1a_3x3_Activation", "inbound_nodes": [[["Mixed_6a_Branch_1_Conv2d_1a_3x3_BatchNorm", 0, 0, {}]]], "class_name": "Activation", "config": {"name": "Mixed_6a_Branch_1_Conv2d_1a_3x3_Activation", "trainable": false, "dtype": "float32", "activation": "relu"}}, {"name": "Mixed_6a_Branch_2_MaxPool_1a_3x3", "inbound_nodes": [[["Block35_5_Activation", 0, 0, {}]]], "class_name": "MaxPooling2D", "config": {"data_format": "channels_last", "trainable": false, "strides": [2, 2], "name": "Mixed_6a_Branch_2_MaxPool_1a_3x3", "pool_size": [3, 3], "padding": "valid", "dtype": "float32"}}, {"name": "Mixed_6a", "inbound_nodes": [[["Mixed_6a_Branch_0_Conv2d_1a_3x3_Activation", 0, 0, {}], ["Mixed_6a_Branch_1_Conv2d_1a_3x3_Activation", 0, 0, {}], ["Mixed_6a_Branch_2_MaxPool_1a_3x3", 0, 0, {}]]], "class_name": "Concatenate", "config": {"name": "Mixed_6a", "trainable": false, "dtype": "float32", "axis": 3}}, {"name": "Block17_1_Branch_1_Conv2d_0a_1x1", "inbound_nodes": [[["Mixed_6a", 0, 0, {}]]], "class_name": "Conv2D", "config": {"kernel_initializer": {"class_name": "VarianceScaling", "config": {"mode": "fan_avg", "distribution": "uniform", "seed": null, "scale": 1, "dtype": "float32"}}, "dilation_rate": [1, 1], "data_format": "channels_last", "trainable": false, "kernel_regularizer": null, "kernel_size": [1, 1], "activation": "linear", "bias_initializer": {"class_name": "Zeros", "config": {"dtype": "float32"}}, "dtype": "float32", "use_bias": false, "bias_regularizer": null, "kernel_constraint": null, "filters": 128, "strides": [1, 1], "name": "Block17_1_Branch_1_Conv2d_0a_1x1", "bias_constraint": null, "activity_regularizer": null, "padding": "same"}}, {"name": "Block17_1_Branch_1_Conv2d_0a_1x1_BatchNorm", "inbound_nodes": [[["Block17_1_Branch_1_Conv2d_0a_1x1", 0, 0, {}]]], "class_name": "BatchNormalization", "config": {"center": true, "beta_initializer": {"class_name": "Zeros", "config": {"dtype": "float32"}}, "trainable": false, "beta_constraint": null, "beta_regularizer": null, "gamma_initializer": {"class_name": "Ones", "config": {"dtype": "float32"}}, "scale": false, "epsilon": 0.001, "moving_variance_initializer": {"class_name": "Ones", "config": {"dtype": "float32"}}, "axis": [3], "moving_mean_initializer": {"class_name": "Zeros", "config": {"dtype": "float32"}}, "dtype": "float32", "gamma_constraint": null, "name": "Block17_1_Branch_1_Conv2d_0a_1x1_BatchNorm", "gamma_regularizer": null, "momentum": 0.995}}, {"name": "Block17_1_Branch_1_Conv2d_0a_1x1_Activation", "inbound_nodes": [[["Block17_1_Branch_1_Conv2d_0a_1x1_BatchNorm", 0, 0, {}]]], "class_name": "Activation", "config": {"name": "Block17_1_Branch_1_Conv2d_0a_1x1_Activation", "trainable": false, "dtype": "float32", "activation": "relu"}}, {"name": "Block17_1_Branch_1_Conv2d_0b_1x7", "inbound_nodes": [[["Block17_1_Branch_1_Conv2d_0a_1x1_Activation", 0, 0, {}]]], "class_name": "Conv2D", "config": {"kernel_initializer": {"class_name": "VarianceScaling", "config": {"mode": "fan_avg", "distribution": "uniform", "seed": null, "scale": 1, "dtype": "float32"}}, "dilation_rate": [1, 1], "data_format": "channels_last", "trainable": false, "kernel_regularizer": null, "kernel_size": [1, 7], "activation": "linear", "bias_initializer": {"class_name": "Zeros", "config": {"dtype": "float32"}}, "dtype": "float32", "use_bias": false, "bias_regularizer": null, "kernel_constraint": null, "filters": 128, "strides": [1, 1], "name": "Block17_1_Branch_1_Conv2d_0b_1x7", "bias_constraint": null, "activity_regularizer": null, "padding": "same"}}, {"name": "Block17_1_Branch_1_Conv2d_0b_1x7_BatchNorm", "inbound_nodes": [[["Block17_1_Branch_1_Conv2d_0b_1x7", 0, 0, {}]]], "class_name": "BatchNormalization", "config": {"center": true, "beta_initializer": {"class_name": "Zeros", "config": {"dtype": "float32"}}, "trainable": false, "beta_constraint": null, "beta_regularizer": null, "gamma_initializer": {"class_name": "Ones", "config": {"dtype": "float32"}}, "scale": false, "epsilon": 0.001, "moving_variance_initializer": {"class_name": "Ones", "config": {"dtype": "float32"}}, "axis": [3], "moving_mean_initializer": {"class_name": "Zeros", "config": {"dtype": "float32"}}, "dtype": "float32", "gamma_constraint": null, "name": "Block17_1_Branch_1_Conv2d_0b_1x7_BatchNorm", "gamma_regularizer": null, "momentum": 0.995}}, {"name": "Block17_1_Branch_1_Conv2d_0b_1x7_Activation", "inbound_nodes": [[["Block17_1_Branch_1_Conv2d_0b_1x7_BatchNorm", 0, 0, {}]]], "class_name": "Activation", "config": {"name": "Block17_1_Branch_1_Conv2d_0b_1x7_Activation", "trainable": false, "dtype": "float32", "activation": "relu"}}, {"name": "Block17_1_Branch_0_Conv2d_1x1", "inbound_nodes": [[["Mixed_6a", 0, 0, {}]]], "class_name": "Conv2D", "config": {"kernel_initializer": {"class_name": "VarianceScaling", "config": {"mode": "fan_avg", "distribution": "uniform", "seed": null, "scale": 1, "dtype": "float32"}}, "dilation_rate": [1, 1], "data_format": "channels_last", "trainable": false, "kernel_regularizer": null, "kernel_size": [1, 1], "activation": "linear", "bias_initializer": {"class_name": "Zeros", "config": {"dtype": "float32"}}, "dtype": "float32", "use_bias": false, "bias_regularizer": null, "kernel_constraint": null, "filters": 128, "strides": [1, 1], "name": "Block17_1_Branch_0_Conv2d_1x1", "bias_constraint": null, "activity_regularizer": null, "padding": "same"}}, {"name": "Block17_1_Branch_1_Conv2d_0c_7x1", "inbound_nodes": [[["Block17_1_Branch_1_Conv2d_0b_1x7_Activation", 0, 0, {}]]], "class_name": "Conv2D", "config": {"kernel_initializer": {"class_name": "VarianceScaling", "config": {"mode": "fan_avg", "distribution": "uniform", "seed": null, "scale": 1, "dtype": "float32"}}, "dilation_rate": [1, 1], "data_format": "channels_last", "trainable": false, "kernel_regularizer": null, "kernel_size": [7, 1], "activation": "linear", "bias_initializer": {"class_name": "Zeros", "config": {"dtype": "float32"}}, "dtype": "float32", "use_bias": false, "bias_regularizer": null, "kernel_constraint": null, "filters": 128, "strides": [1, 1], "name": "Block17_1_Branch_1_Conv2d_0c_7x1", "bias_constraint": null, "activity_regularizer": null, "padding": "same"}}, {"name": "Block17_1_Branch_0_Conv2d_1x1_BatchNorm", "inbound_nodes": [[["Block17_1_Branch_0_Conv2d_1x1", 0, 0, {}]]], "class_name": "BatchNormalization", "config": {"center": true, "beta_initializer": {"class_name": "Zeros", "config": {"dtype": "float32"}}, "trainable": false, "beta_constraint": null, "beta_regularizer": null, "gamma_initializer": {"class_name": "Ones", "config": {"dtype": "float32"}}, "scale": false, "epsilon": 0.001, "moving_variance_initializer": {"class_name": "Ones", "config": {"dtype": "float32"}}, "axis": [3], "moving_mean_initializer": {"class_name": "Zeros", "config": {"dtype": "float32"}}, "dtype": "float32", "gamma_constraint": null, "name": "Block17_1_Branch_0_Conv2d_1x1_BatchNorm", "gamma_regularizer": null, "momentum": 0.995}}, {"name": "Block17_1_Branch_1_Conv2d_0c_7x1_BatchNorm", "inbound_nodes": [[["Block17_1_Branch_1_Conv2d_0c_7x1", 0, 0, {}]]], "class_name": "BatchNormalization", "config": {"center": true, "beta_initializer": {"class_name": "Zeros", "config": {"dtype": "float32"}}, "trainable": false, "beta_constraint": null, "beta_regularizer": null, "gamma_initializer": {"class_name": "Ones", "config": {"dtype": "float32"}}, "scale": false, "epsilon": 0.001, "moving_variance_initializer": {"class_name": "Ones", "config": {"dtype": "float32"}}, "axis": [3], "moving_mean_initializer": {"class_name": "Zeros", "config": {"dtype": "float32"}}, "dtype": "float32", "gamma_constraint": null, "name": "Block17_1_Branch_1_Conv2d_0c_7x1_BatchNorm", "gamma_regularizer": null, "momentum": 0.995}}, {"name": "Block17_1_Branch_0_Conv2d_1x1_Activation", "inbound_nodes": [[["Block17_1_Branch_0_Conv2d_1x1_BatchNorm", 0, 0, {}]]], "class_name": "Activation", "config": {"name": "Block17_1_Branch_0_Conv2d_1x1_Activation", "trainable": false, "dtype": "float32", "activation": "relu"}}, {"name": "Block17_1_Branch_1_Conv2d_0c_7x1_Activation", "inbound_nodes": [[["Block17_1_Branch_1_Conv2d_0c_7x1_BatchNorm", 0, 0, {}]]], "class_name": "Activation", "config": {"name": "Block17_1_Branch_1_Conv2d_0c_7x1_Activation", "trainable": false, "dtype": "float32", "activation": "relu"}}, {"name": "Block17_1_Concatenate", "inbound_nodes": [[["Block17_1_Branch_0_Conv2d_1x1_Activation", 0, 0, {}], ["Block17_1_Branch_1_Conv2d_0c_7x1_Activation", 0, 0, {}]]], "class_name": "Concatenate", "config": {"name": "Block17_1_Concatenate", "trainable": false, "dtype": "float32", "axis": 3}}, {"name": "Block17_1_Conv2d_1x1", "inbound_nodes": [[["Block17_1_Concatenate", 0, 0, {}]]], "class_name": "Conv2D", "config": {"kernel_initializer": {"class_name": "VarianceScaling", "config": {"mode": "fan_avg", "distribution": "uniform", "seed": null, "scale": 1, "dtype": "float32"}}, "dilation_rate": [1, 1], "data_format": "channels_last", "trainable": false, "kernel_regularizer": null, "kernel_size": [1, 1], "activation": "linear", "bias_initializer": {"class_name": "Zeros", "config": {"dtype": "float32"}}, "dtype": "float32", "use_bias": true, "bias_regularizer": null, "kernel_constraint": null, "filters": 896, "strides": [1, 1], "name": "Block17_1_Conv2d_1x1", "bias_constraint": null, "activity_regularizer": null, "padding": "same"}}, {"name": "lambda_6", "inbound_nodes": [[["Block17_1_Conv2d_1x1", 0, 0, {}]]], "class_name": "Lambda", "config": {"output_shape_module": null, "output_shape": [8, 8, 896], "trainable": false, "arguments": {"scale": 0.1}, "function_type": "lambda", "name": "lambda_6", "module": "tensorflow.python.keras.layers.core", "function": ["4wIAAAAAAAAAAgAAAAIAAABDAAAAcwgAAAB8AAB8AQAUUykBTqkAKQLaAXjaBXNjYWxlcgEAAABy\nAQAAAPovQzovVXNlcnMvSVM5NjI3My9EZXNrdG9wL2luY2VwdGlvbl9yZXNuZXRfdjEucHnaB3Nj\nYWxpbmcZAAAAcwIAAAAAAQ==\n", null, null], "dtype": "float32", "output_shape_type": "raw"}}, {"name": "add_6", "inbound_nodes": [[["Mixed_6a", 0, 0, {}], ["lambda_6", 0, 0, {}]]], "class_name": "Add", "config": {"name": "add_6", "trainable": false, "dtype": "float32"}}, {"name": "Block17_1_Activation", "inbound_nodes": [[["add_6", 0, 0, {}]]], "class_name": "Activation", "config": {"name": "Block17_1_Activation", "trainable": false, "dtype": "float32", "activation": "relu"}}, {"name": "Block17_2_Branch_1_Conv2d_0a_1x1", "inbound_nodes": [[["Block17_1_Activation", 0, 0, {}]]], "class_name": "Conv2D", "config": {"kernel_initializer": {"class_name": "VarianceScaling", "config": {"mode": "fan_avg", "distribution": "uniform", "seed": null, "scale": 1, "dtype": "float32"}}, "dilation_rate": [1, 1], "data_format": "channels_last", "trainable": false, "kernel_regularizer": null, "kernel_size": [1, 1], "activation": "linear", "bias_initializer": {"class_name": "Zeros", "config": {"dtype": "float32"}}, "dtype": "float32", "use_bias": false, "bias_regularizer": null, "kernel_constraint": null, "filters": 128, "strides": [1, 1], "name": "Block17_2_Branch_1_Conv2d_0a_1x1", "bias_constraint": null, "activity_regularizer": null, "padding": "same"}}, {"name": "Block17_2_Branch_1_Conv2d_0a_1x1_BatchNorm", "inbound_nodes": [[["Block17_2_Branch_1_Conv2d_0a_1x1", 0, 0, {}]]], "class_name": "BatchNormalization", "config": {"center": true, "beta_initializer": {"class_name": "Zeros", "config": {"dtype": "float32"}}, "trainable": false, "beta_constraint": null, "beta_regularizer": null, "gamma_initializer": {"class_name": "Ones", "config": {"dtype": "float32"}}, "scale": false, "epsilon": 0.001, "moving_variance_initializer": {"class_name": "Ones", "config": {"dtype": "float32"}}, "axis": [3], "moving_mean_initializer": {"class_name": "Zeros", "config": {"dtype": "float32"}}, "dtype": "float32", "gamma_constraint": null, "name": "Block17_2_Branch_1_Conv2d_0a_1x1_BatchNorm", "gamma_regularizer": null, "momentum": 0.995}}, {"name": "Block17_2_Branch_1_Conv2d_0a_1x1_Activation", "inbound_nodes": [[["Block17_2_Branch_1_Conv2d_0a_1x1_BatchNorm", 0, 0, {}]]], "class_name": "Activation", "config": {"name": "Block17_2_Branch_1_Conv2d_0a_1x1_Activation", "trainable": false, "dtype": "float32", "activation": "relu"}}, {"name": "Block17_2_Branch_1_Conv2d_0b_1x7", "inbound_nodes": [[["Block17_2_Branch_1_Conv2d_0a_1x1_Activation", 0, 0, {}]]], "class_name": "Conv2D", "config": {"kernel_initializer": {"class_name": "VarianceScaling", "config": {"mode": "fan_avg", "distribution": "uniform", "seed": null, "scale": 1, "dtype": "float32"}}, "dilation_rate": [1, 1], "data_format": "channels_last", "trainable": false, "kernel_regularizer": null, "kernel_size": [1, 7], "activation": "linear", "bias_initializer": {"class_name": "Zeros", "config": {"dtype": "float32"}}, "dtype": "float32", "use_bias": false, "bias_regularizer": null, "kernel_constraint": null, "filters": 128, "strides": [1, 1], "name": "Block17_2_Branch_1_Conv2d_0b_1x7", "bias_constraint": null, "activity_regularizer": null, "padding": "same"}}, {"name": "Block17_2_Branch_1_Conv2d_0b_1x7_BatchNorm", "inbound_nodes": [[["Block17_2_Branch_1_Conv2d_0b_1x7", 0, 0, {}]]], "class_name": "BatchNormalization", "config": {"center": true, "beta_initializer": {"class_name": "Zeros", "config": {"dtype": "float32"}}, "trainable": false, "beta_constraint": null, "beta_regularizer": null, "gamma_initializer": {"class_name": "Ones", "config": {"dtype": "float32"}}, "scale": false, "epsilon": 0.001, "moving_variance_initializer": {"class_name": "Ones", "config": {"dtype": "float32"}}, "axis": [3], "moving_mean_initializer": {"class_name": "Zeros", "config": {"dtype": "float32"}}, "dtype": "float32", "gamma_constraint": null, "name": "Block17_2_Branch_1_Conv2d_0b_1x7_BatchNorm", "gamma_regularizer": null, "momentum": 0.995}}, {"name": "Block17_2_Branch_1_Conv2d_0b_1x7_Activation", "inbound_nodes": [[["Block17_2_Branch_1_Conv2d_0b_1x7_BatchNorm", 0, 0, {}]]], "class_name": "Activation", "config": {"name": "Block17_2_Branch_1_Conv2d_0b_1x7_Activation", "trainable": false, "dtype": "float32", "activation": "relu"}}, {"name": "Block17_2_Branch_0_Conv2d_1x1", "inbound_nodes": [[["Block17_1_Activation", 0, 0, {}]]], "class_name": "Conv2D", "config": {"kernel_initializer": {"class_name": "VarianceScaling", "config": {"mode": "fan_avg", "distribution": "uniform", "seed": null, "scale": 1, "dtype": "float32"}}, "dilation_rate": [1, 1], "data_format": "channels_last", "trainable": false, "kernel_regularizer": null, "kernel_size": [1, 1], "activation": "linear", "bias_initializer": {"class_name": "Zeros", "config": {"dtype": "float32"}}, "dtype": "float32", "use_bias": false, "bias_regularizer": null, "kernel_constraint": null, "filters": 128, "strides": [1, 1], "name": "Block17_2_Branch_0_Conv2d_1x1", "bias_constraint": null, "activity_regularizer": null, "padding": "same"}}, {"name": "Block17_2_Branch_1_Conv2d_0c_7x1", "inbound_nodes": [[["Block17_2_Branch_1_Conv2d_0b_1x7_Activation", 0, 0, {}]]], "class_name": "Conv2D", "config": {"kernel_initializer": {"class_name": "VarianceScaling", "config": {"mode": "fan_avg", "distribution": "uniform", "seed": null, "scale": 1, "dtype": "float32"}}, "dilation_rate": [1, 1], "data_format": "channels_last", "trainable": false, "kernel_regularizer": null, "kernel_size": [7, 1], "activation": "linear", "bias_initializer": {"class_name": "Zeros", "config": {"dtype": "float32"}}, "dtype": "float32", "use_bias": false, "bias_regularizer": null, "kernel_constraint": null, "filters": 128, "strides": [1, 1], "name": "Block17_2_Branch_1_Conv2d_0c_7x1", "bias_constraint": null, "activity_regularizer": null, "padding": "same"}}, {"name": "Block17_2_Branch_0_Conv2d_1x1_BatchNorm", "inbound_nodes": [[["Block17_2_Branch_0_Conv2d_1x1", 0, 0, {}]]], "class_name": "BatchNormalization", "config": {"center": true, "beta_initializer": {"class_name": "Zeros", "config": {"dtype": "float32"}}, "trainable": false, "beta_constraint": null, "beta_regularizer": null, "gamma_initializer": {"class_name": "Ones", "config": {"dtype": "float32"}}, "scale": false, "epsilon": 0.001, "moving_variance_initializer": {"class_name": "Ones", "config": {"dtype": "float32"}}, "axis": [3], "moving_mean_initializer": {"class_name": "Zeros", "config": {"dtype": "float32"}}, "dtype": "float32", "gamma_constraint": null, "name": "Block17_2_Branch_0_Conv2d_1x1_BatchNorm", "gamma_regularizer": null, "momentum": 0.995}}, {"name": "Block17_2_Branch_1_Conv2d_0c_7x1_BatchNorm", "inbound_nodes": [[["Block17_2_Branch_1_Conv2d_0c_7x1", 0, 0, {}]]], "class_name": "BatchNormalization", "config": {"center": true, "beta_initializer": {"class_name": "Zeros", "config": {"dtype": "float32"}}, "trainable": false, "beta_constraint": null, "beta_regularizer": null, "gamma_initializer": {"class_name": "Ones", "config": {"dtype": "float32"}}, "scale": false, "epsilon": 0.001, "moving_variance_initializer": {"class_name": "Ones", "config": {"dtype": "float32"}}, "axis": [3], "moving_mean_initializer": {"class_name": "Zeros", "config": {"dtype": "float32"}}, "dtype": "float32", "gamma_constraint": null, "name": "Block17_2_Branch_1_Conv2d_0c_7x1_BatchNorm", "gamma_regularizer": null, "momentum": 0.995}}, {"name": "Block17_2_Branch_0_Conv2d_1x1_Activation", "inbound_nodes": [[["Block17_2_Branch_0_Conv2d_1x1_BatchNorm", 0, 0, {}]]], "class_name": "Activation", "config": {"name": "Block17_2_Branch_0_Conv2d_1x1_Activation", "trainable": false, "dtype": "float32", "activation": "relu"}}, {"name": "Block17_2_Branch_1_Conv2d_0c_7x1_Activation", "inbound_nodes": [[["Block17_2_Branch_1_Conv2d_0c_7x1_BatchNorm", 0, 0, {}]]], "class_name": "Activation", "config": {"name": "Block17_2_Branch_1_Conv2d_0c_7x1_Activation", "trainable": false, "dtype": "float32", "activation": "relu"}}, {"name": "Block17_2_Concatenate", "inbound_nodes": [[["Block17_2_Branch_0_Conv2d_1x1_Activation", 0, 0, {}], ["Block17_2_Branch_1_Conv2d_0c_7x1_Activation", 0, 0, {}]]], "class_name": "Concatenate", "config": {"name": "Block17_2_Concatenate", "trainable": false, "dtype": "float32", "axis": 3}}, {"name": "Block17_2_Conv2d_1x1", "inbound_nodes": [[["Block17_2_Concatenate", 0, 0, {}]]], "class_name": "Conv2D", "config": {"kernel_initializer": {"class_name": "VarianceScaling", "config": {"mode": "fan_avg", "distribution": "uniform", "seed": null, "scale": 1, "dtype": "float32"}}, "dilation_rate": [1, 1], "data_format": "channels_last", "trainable": false, "kernel_regularizer": null, "kernel_size": [1, 1], "activation": "linear", "bias_initializer": {"class_name": "Zeros", "config": {"dtype": "float32"}}, "dtype": "float32", "use_bias": true, "bias_regularizer": null, "kernel_constraint": null, "filters": 896, "strides": [1, 1], "name": "Block17_2_Conv2d_1x1", "bias_constraint": null, "activity_regularizer": null, "padding": "same"}}, {"name": "lambda_7", "inbound_nodes": [[["Block17_2_Conv2d_1x1", 0, 0, {}]]], "class_name": "Lambda", "config": {"output_shape_module": null, "output_shape": [8, 8, 896], "trainable": false, "arguments": {"scale": 0.1}, "function_type": "lambda", "name": "lambda_7", "module": "tensorflow.python.keras.layers.core", "function": ["4wIAAAAAAAAAAgAAAAIAAABDAAAAcwgAAAB8AAB8AQAUUykBTqkAKQLaAXjaBXNjYWxlcgEAAABy\nAQAAAPovQzovVXNlcnMvSVM5NjI3My9EZXNrdG9wL2luY2VwdGlvbl9yZXNuZXRfdjEucHnaB3Nj\nYWxpbmcZAAAAcwIAAAAAAQ==\n", null, null], "dtype": "float32", "output_shape_type": "raw"}}, {"name": "add_7", "inbound_nodes": [[["Block17_1_Activation", 0, 0, {}], ["lambda_7", 0, 0, {}]]], "class_name": "Add", "config": {"name": "add_7", "trainable": false, "dtype": "float32"}}, {"name": "Block17_2_Activation", "inbound_nodes": [[["add_7", 0, 0, {}]]], "class_name": "Activation", "config": {"name": "Block17_2_Activation", "trainable": false, "dtype": "float32", "activation": "relu"}}, {"name": "Block17_3_Branch_1_Conv2d_0a_1x1", "inbound_nodes": [[["Block17_2_Activation", 0, 0, {}]]], "class_name": "Conv2D", "config": {"kernel_initializer": {"class_name": "VarianceScaling", "config": {"mode": "fan_avg", "distribution": "uniform", "seed": null, "scale": 1, "dtype": "float32"}}, "dilation_rate": [1, 1], "data_format": "channels_last", "trainable": false, "kernel_regularizer": null, "kernel_size": [1, 1], "activation": "linear", "bias_initializer": {"class_name": "Zeros", "config": {"dtype": "float32"}}, "dtype": "float32", "use_bias": false, "bias_regularizer": null, "kernel_constraint": null, "filters": 128, "strides": [1, 1], "name": "Block17_3_Branch_1_Conv2d_0a_1x1", "bias_constraint": null, "activity_regularizer": null, "padding": "same"}}, {"name": "Block17_3_Branch_1_Conv2d_0a_1x1_BatchNorm", "inbound_nodes": [[["Block17_3_Branch_1_Conv2d_0a_1x1", 0, 0, {}]]], "class_name": "BatchNormalization", "config": {"center": true, "beta_initializer": {"class_name": "Zeros", "config": {"dtype": "float32"}}, "trainable": false, "beta_constraint": null, "beta_regularizer": null, "gamma_initializer": {"class_name": "Ones", "config": {"dtype": "float32"}}, "scale": false, "epsilon": 0.001, "moving_variance_initializer": {"class_name": "Ones", "config": {"dtype": "float32"}}, "axis": [3], "moving_mean_initializer": {"class_name": "Zeros", "config": {"dtype": "float32"}}, "dtype": "float32", "gamma_constraint": null, "name": "Block17_3_Branch_1_Conv2d_0a_1x1_BatchNorm", "gamma_regularizer": null, "momentum": 0.995}}, {"name": "Block17_3_Branch_1_Conv2d_0a_1x1_Activation", "inbound_nodes": [[["Block17_3_Branch_1_Conv2d_0a_1x1_BatchNorm", 0, 0, {}]]], "class_name": "Activation", "config": {"name": "Block17_3_Branch_1_Conv2d_0a_1x1_Activation", "trainable": false, "dtype": "float32", "activation": "relu"}}, {"name": "Block17_3_Branch_1_Conv2d_0b_1x7", "inbound_nodes": [[["Block17_3_Branch_1_Conv2d_0a_1x1_Activation", 0, 0, {}]]], "class_name": "Conv2D", "config": {"kernel_initializer": {"class_name": "VarianceScaling", "config": {"mode": "fan_avg", "distribution": "uniform", "seed": null, "scale": 1, "dtype": "float32"}}, "dilation_rate": [1, 1], "data_format": "channels_last", "trainable": false, "kernel_regularizer": null, "kernel_size": [1, 7], "activation": "linear", "bias_initializer": {"class_name": "Zeros", "config": {"dtype": "float32"}}, "dtype": "float32", "use_bias": false, "bias_regularizer": null, "kernel_constraint": null, "filters": 128, "strides": [1, 1], "name": "Block17_3_Branch_1_Conv2d_0b_1x7", "bias_constraint": null, "activity_regularizer": null, "padding": "same"}}, {"name": "Block17_3_Branch_1_Conv2d_0b_1x7_BatchNorm", "inbound_nodes": [[["Block17_3_Branch_1_Conv2d_0b_1x7", 0, 0, {}]]], "class_name": "BatchNormalization", "config": {"center": true, "beta_initializer": {"class_name": "Zeros", "config": {"dtype": "float32"}}, "trainable": false, "beta_constraint": null, "beta_regularizer": null, "gamma_initializer": {"class_name": "Ones", "config": {"dtype": "float32"}}, "scale": false, "epsilon": 0.001, "moving_variance_initializer": {"class_name": "Ones", "config": {"dtype": "float32"}}, "axis": [3], "moving_mean_initializer": {"class_name": "Zeros", "config": {"dtype": "float32"}}, "dtype": "float32", "gamma_constraint": null, "name": "Block17_3_Branch_1_Conv2d_0b_1x7_BatchNorm", "gamma_regularizer": null, "momentum": 0.995}}, {"name": "Block17_3_Branch_1_Conv2d_0b_1x7_Activation", "inbound_nodes": [[["Block17_3_Branch_1_Conv2d_0b_1x7_BatchNorm", 0, 0, {}]]], "class_name": "Activation", "config": {"name": "Block17_3_Branch_1_Conv2d_0b_1x7_Activation", "trainable": false, "dtype": "float32", "activation": "relu"}}, {"name": "Block17_3_Branch_0_Conv2d_1x1", "inbound_nodes": [[["Block17_2_Activation", 0, 0, {}]]], "class_name": "Conv2D", "config": {"kernel_initializer": {"class_name": "VarianceScaling", "config": {"mode": "fan_avg", "distribution": "uniform", "seed": null, "scale": 1, "dtype": "float32"}}, "dilation_rate": [1, 1], "data_format": "channels_last", "trainable": false, "kernel_regularizer": null, "kernel_size": [1, 1], "activation": "linear", "bias_initializer": {"class_name": "Zeros", "config": {"dtype": "float32"}}, "dtype": "float32", "use_bias": false, "bias_regularizer": null, "kernel_constraint": null, "filters": 128, "strides": [1, 1], "name": "Block17_3_Branch_0_Conv2d_1x1", "bias_constraint": null, "activity_regularizer": null, "padding": "same"}}, {"name": "Block17_3_Branch_1_Conv2d_0c_7x1", "inbound_nodes": [[["Block17_3_Branch_1_Conv2d_0b_1x7_Activation", 0, 0, {}]]], "class_name": "Conv2D", "config": {"kernel_initializer": {"class_name": "VarianceScaling", "config": {"mode": "fan_avg", "distribution": "uniform", "seed": null, "scale": 1, "dtype": "float32"}}, "dilation_rate": [1, 1], "data_format": "channels_last", "trainable": false, "kernel_regularizer": null, "kernel_size": [7, 1], "activation": "linear", "bias_initializer": {"class_name": "Zeros", "config": {"dtype": "float32"}}, "dtype": "float32", "use_bias": false, "bias_regularizer": null, "kernel_constraint": null, "filters": 128, "strides": [1, 1], "name": "Block17_3_Branch_1_Conv2d_0c_7x1", "bias_constraint": null, "activity_regularizer": null, "padding": "same"}}, {"name": "Block17_3_Branch_0_Conv2d_1x1_BatchNorm", "inbound_nodes": [[["Block17_3_Branch_0_Conv2d_1x1", 0, 0, {}]]], "class_name": "BatchNormalization", "config": {"center": true, "beta_initializer": {"class_name": "Zeros", "config": {"dtype": "float32"}}, "trainable": false, "beta_constraint": null, "beta_regularizer": null, "gamma_initializer": {"class_name": "Ones", "config": {"dtype": "float32"}}, "scale": false, "epsilon": 0.001, "moving_variance_initializer": {"class_name": "Ones", "config": {"dtype": "float32"}}, "axis": [3], "moving_mean_initializer": {"class_name": "Zeros", "config": {"dtype": "float32"}}, "dtype": "float32", "gamma_constraint": null, "name": "Block17_3_Branch_0_Conv2d_1x1_BatchNorm", "gamma_regularizer": null, "momentum": 0.995}}, {"name": "Block17_3_Branch_1_Conv2d_0c_7x1_BatchNorm", "inbound_nodes": [[["Block17_3_Branch_1_Conv2d_0c_7x1", 0, 0, {}]]], "class_name": "BatchNormalization", "config": {"center": true, "beta_initializer": {"class_name": "Zeros", "config": {"dtype": "float32"}}, "trainable": false, "beta_constraint": null, "beta_regularizer": null, "gamma_initializer": {"class_name": "Ones", "config": {"dtype": "float32"}}, "scale": false, "epsilon": 0.001, "moving_variance_initializer": {"class_name": "Ones", "config": {"dtype": "float32"}}, "axis": [3], "moving_mean_initializer": {"class_name": "Zeros", "config": {"dtype": "float32"}}, "dtype": "float32", "gamma_constraint": null, "name": "Block17_3_Branch_1_Conv2d_0c_7x1_BatchNorm", "gamma_regularizer": null, "momentum": 0.995}}, {"name": "Block17_3_Branch_0_Conv2d_1x1_Activation", "inbound_nodes": [[["Block17_3_Branch_0_Conv2d_1x1_BatchNorm", 0, 0, {}]]], "class_name": "Activation", "config": {"name": "Block17_3_Branch_0_Conv2d_1x1_Activation", "trainable": false, "dtype": "float32", "activation": "relu"}}, {"name": "Block17_3_Branch_1_Conv2d_0c_7x1_Activation", "inbound_nodes": [[["Block17_3_Branch_1_Conv2d_0c_7x1_BatchNorm", 0, 0, {}]]], "class_name": "Activation", "config": {"name": "Block17_3_Branch_1_Conv2d_0c_7x1_Activation", "trainable": false, "dtype": "float32", "activation": "relu"}}, {"name": "Block17_3_Concatenate", "inbound_nodes": [[["Block17_3_Branch_0_Conv2d_1x1_Activation", 0, 0, {}], ["Block17_3_Branch_1_Conv2d_0c_7x1_Activation", 0, 0, {}]]], "class_name": "Concatenate", "config": {"name": "Block17_3_Concatenate", "trainable": false, "dtype": "float32", "axis": 3}}, {"name": "Block17_3_Conv2d_1x1", "inbound_nodes": [[["Block17_3_Concatenate", 0, 0, {}]]], "class_name": "Conv2D", "config": {"kernel_initializer": {"class_name": "VarianceScaling", "config": {"mode": "fan_avg", "distribution": "uniform", "seed": null, "scale": 1, "dtype": "float32"}}, "dilation_rate": [1, 1], "data_format": "channels_last", "trainable": false, "kernel_regularizer": null, "kernel_size": [1, 1], "activation": "linear", "bias_initializer": {"class_name": "Zeros", "config": {"dtype": "float32"}}, "dtype": "float32", "use_bias": true, "bias_regularizer": null, "kernel_constraint": null, "filters": 896, "strides": [1, 1], "name": "Block17_3_Conv2d_1x1", "bias_constraint": null, "activity_regularizer": null, "padding": "same"}}, {"name": "lambda_8", "inbound_nodes": [[["Block17_3_Conv2d_1x1", 0, 0, {}]]], "class_name": "Lambda", "config": {"output_shape_module": null, "output_shape": [8, 8, 896], "trainable": false, "arguments": {"scale": 0.1}, "function_type": "lambda", "name": "lambda_8", "module": "tensorflow.python.keras.layers.core", "function": ["4wIAAAAAAAAAAgAAAAIAAABDAAAAcwgAAAB8AAB8AQAUUykBTqkAKQLaAXjaBXNjYWxlcgEAAABy\nAQAAAPovQzovVXNlcnMvSVM5NjI3My9EZXNrdG9wL2luY2VwdGlvbl9yZXNuZXRfdjEucHnaB3Nj\nYWxpbmcZAAAAcwIAAAAAAQ==\n", null, null], "dtype": "float32", "output_shape_type": "raw"}}, {"name": "add_8", "inbound_nodes": [[["Block17_2_Activation", 0, 0, {}], ["lambda_8", 0, 0, {}]]], "class_name": "Add", "config": {"name": "add_8", "trainable": false, "dtype": "float32"}}, {"name": "Block17_3_Activation", "inbound_nodes": [[["add_8", 0, 0, {}]]], "class_name": "Activation", "config": {"name": "Block17_3_Activation", "trainable": false, "dtype": "float32", "activation": "relu"}}, {"name": "Block17_4_Branch_1_Conv2d_0a_1x1", "inbound_nodes": [[["Block17_3_Activation", 0, 0, {}]]], "class_name": "Conv2D", "config": {"kernel_initializer": {"class_name": "VarianceScaling", "config": {"mode": "fan_avg", "distribution": "uniform", "seed": null, "scale": 1, "dtype": "float32"}}, "dilation_rate": [1, 1], "data_format": "channels_last", "trainable": false, "kernel_regularizer": null, "kernel_size": [1, 1], "activation": "linear", "bias_initializer": {"class_name": "Zeros", "config": {"dtype": "float32"}}, "dtype": "float32", "use_bias": false, "bias_regularizer": null, "kernel_constraint": null, "filters": 128, "strides": [1, 1], "name": "Block17_4_Branch_1_Conv2d_0a_1x1", "bias_constraint": null, "activity_regularizer": null, "padding": "same"}}, {"name": "Block17_4_Branch_1_Conv2d_0a_1x1_BatchNorm", "inbound_nodes": [[["Block17_4_Branch_1_Conv2d_0a_1x1", 0, 0, {}]]], "class_name": "BatchNormalization", "config": {"center": true, "beta_initializer": {"class_name": "Zeros", "config": {"dtype": "float32"}}, "trainable": false, "beta_constraint": null, "beta_regularizer": null, "gamma_initializer": {"class_name": "Ones", "config": {"dtype": "float32"}}, "scale": false, "epsilon": 0.001, "moving_variance_initializer": {"class_name": "Ones", "config": {"dtype": "float32"}}, "axis": [3], "moving_mean_initializer": {"class_name": "Zeros", "config": {"dtype": "float32"}}, "dtype": "float32", "gamma_constraint": null, "name": "Block17_4_Branch_1_Conv2d_0a_1x1_BatchNorm", "gamma_regularizer": null, "momentum": 0.995}}, {"name": "Block17_4_Branch_1_Conv2d_0a_1x1_Activation", "inbound_nodes": [[["Block17_4_Branch_1_Conv2d_0a_1x1_BatchNorm", 0, 0, {}]]], "class_name": "Activation", "config": {"name": "Block17_4_Branch_1_Conv2d_0a_1x1_Activation", "trainable": false, "dtype": "float32", "activation": "relu"}}, {"name": "Block17_4_Branch_1_Conv2d_0b_1x7", "inbound_nodes": [[["Block17_4_Branch_1_Conv2d_0a_1x1_Activation", 0, 0, {}]]], "class_name": "Conv2D", "config": {"kernel_initializer": {"class_name": "VarianceScaling", "config": {"mode": "fan_avg", "distribution": "uniform", "seed": null, "scale": 1, "dtype": "float32"}}, "dilation_rate": [1, 1], "data_format": "channels_last", "trainable": false, "kernel_regularizer": null, "kernel_size": [1, 7], "activation": "linear", "bias_initializer": {"class_name": "Zeros", "config": {"dtype": "float32"}}, "dtype": "float32", "use_bias": false, "bias_regularizer": null, "kernel_constraint": null, "filters": 128, "strides": [1, 1], "name": "Block17_4_Branch_1_Conv2d_0b_1x7", "bias_constraint": null, "activity_regularizer": null, "padding": "same"}}, {"name": "Block17_4_Branch_1_Conv2d_0b_1x7_BatchNorm", "inbound_nodes": [[["Block17_4_Branch_1_Conv2d_0b_1x7", 0, 0, {}]]], "class_name": "BatchNormalization", "config": {"center": true, "beta_initializer": {"class_name": "Zeros", "config": {"dtype": "float32"}}, "trainable": false, "beta_constraint": null, "beta_regularizer": null, "gamma_initializer": {"class_name": "Ones", "config": {"dtype": "float32"}}, "scale": false, "epsilon": 0.001, "moving_variance_initializer": {"class_name": "Ones", "config": {"dtype": "float32"}}, "axis": [3], "moving_mean_initializer": {"class_name": "Zeros", "config": {"dtype": "float32"}}, "dtype": "float32", "gamma_constraint": null, "name": "Block17_4_Branch_1_Conv2d_0b_1x7_BatchNorm", "gamma_regularizer": null, "momentum": 0.995}}, {"name": "Block17_4_Branch_1_Conv2d_0b_1x7_Activation", "inbound_nodes": [[["Block17_4_Branch_1_Conv2d_0b_1x7_BatchNorm", 0, 0, {}]]], "class_name": "Activation", "config": {"name": "Block17_4_Branch_1_Conv2d_0b_1x7_Activation", "trainable": false, "dtype": "float32", "activation": "relu"}}, {"name": "Block17_4_Branch_0_Conv2d_1x1", "inbound_nodes": [[["Block17_3_Activation", 0, 0, {}]]], "class_name": "Conv2D", "config": {"kernel_initializer": {"class_name": "VarianceScaling", "config": {"mode": "fan_avg", "distribution": "uniform", "seed": null, "scale": 1, "dtype": "float32"}}, "dilation_rate": [1, 1], "data_format": "channels_last", "trainable": false, "kernel_regularizer": null, "kernel_size": [1, 1], "activation": "linear", "bias_initializer": {"class_name": "Zeros", "config": {"dtype": "float32"}}, "dtype": "float32", "use_bias": false, "bias_regularizer": null, "kernel_constraint": null, "filters": 128, "strides": [1, 1], "name": "Block17_4_Branch_0_Conv2d_1x1", "bias_constraint": null, "activity_regularizer": null, "padding": "same"}}, {"name": "Block17_4_Branch_1_Conv2d_0c_7x1", "inbound_nodes": [[["Block17_4_Branch_1_Conv2d_0b_1x7_Activation", 0, 0, {}]]], "class_name": "Conv2D", "config": {"kernel_initializer": {"class_name": "VarianceScaling", "config": {"mode": "fan_avg", "distribution": "uniform", "seed": null, "scale": 1, "dtype": "float32"}}, "dilation_rate": [1, 1], "data_format": "channels_last", "trainable": false, "kernel_regularizer": null, "kernel_size": [7, 1], "activation": "linear", "bias_initializer": {"class_name": "Zeros", "config": {"dtype": "float32"}}, "dtype": "float32", "use_bias": false, "bias_regularizer": null, "kernel_constraint": null, "filters": 128, "strides": [1, 1], "name": "Block17_4_Branch_1_Conv2d_0c_7x1", "bias_constraint": null, "activity_regularizer": null, "padding": "same"}}, {"name": "Block17_4_Branch_0_Conv2d_1x1_BatchNorm", "inbound_nodes": [[["Block17_4_Branch_0_Conv2d_1x1", 0, 0, {}]]], "class_name": "BatchNormalization", "config": {"center": true, "beta_initializer": {"class_name": "Zeros", "config": {"dtype": "float32"}}, "trainable": false, "beta_constraint": null, "beta_regularizer": null, "gamma_initializer": {"class_name": "Ones", "config": {"dtype": "float32"}}, "scale": false, "epsilon": 0.001, "moving_variance_initializer": {"class_name": "Ones", "config": {"dtype": "float32"}}, "axis": [3], "moving_mean_initializer": {"class_name": "Zeros", "config": {"dtype": "float32"}}, "dtype": "float32", "gamma_constraint": null, "name": "Block17_4_Branch_0_Conv2d_1x1_BatchNorm", "gamma_regularizer": null, "momentum": 0.995}}, {"name": "Block17_4_Branch_1_Conv2d_0c_7x1_BatchNorm", "inbound_nodes": [[["Block17_4_Branch_1_Conv2d_0c_7x1", 0, 0, {}]]], "class_name": "BatchNormalization", "config": {"center": true, "beta_initializer": {"class_name": "Zeros", "config": {"dtype": "float32"}}, "trainable": false, "beta_constraint": null, "beta_regularizer": null, "gamma_initializer": {"class_name": "Ones", "config": {"dtype": "float32"}}, "scale": false, "epsilon": 0.001, "moving_variance_initializer": {"class_name": "Ones", "config": {"dtype": "float32"}}, "axis": [3], "moving_mean_initializer": {"class_name": "Zeros", "config": {"dtype": "float32"}}, "dtype": "float32", "gamma_constraint": null, "name": "Block17_4_Branch_1_Conv2d_0c_7x1_BatchNorm", "gamma_regularizer": null, "momentum": 0.995}}, {"name": "Block17_4_Branch_0_Conv2d_1x1_Activation", "inbound_nodes": [[["Block17_4_Branch_0_Conv2d_1x1_BatchNorm", 0, 0, {}]]], "class_name": "Activation", "config": {"name": "Block17_4_Branch_0_Conv2d_1x1_Activation", "trainable": false, "dtype": "float32", "activation": "relu"}}, {"name": "Block17_4_Branch_1_Conv2d_0c_7x1_Activation", "inbound_nodes": [[["Block17_4_Branch_1_Conv2d_0c_7x1_BatchNorm", 0, 0, {}]]], "class_name": "Activation", "config": {"name": "Block17_4_Branch_1_Conv2d_0c_7x1_Activation", "trainable": false, "dtype": "float32", "activation": "relu"}}, {"name": "Block17_4_Concatenate", "inbound_nodes": [[["Block17_4_Branch_0_Conv2d_1x1_Activation", 0, 0, {}], ["Block17_4_Branch_1_Conv2d_0c_7x1_Activation", 0, 0, {}]]], "class_name": "Concatenate", "config": {"name": "Block17_4_Concatenate", "trainable": false, "dtype": "float32", "axis": 3}}, {"name": "Block17_4_Conv2d_1x1", "inbound_nodes": [[["Block17_4_Concatenate", 0, 0, {}]]], "class_name": "Conv2D", "config": {"kernel_initializer": {"class_name": "VarianceScaling", "config": {"mode": "fan_avg", "distribution": "uniform", "seed": null, "scale": 1, "dtype": "float32"}}, "dilation_rate": [1, 1], "data_format": "channels_last", "trainable": false, "kernel_regularizer": null, "kernel_size": [1, 1], "activation": "linear", "bias_initializer": {"class_name": "Zeros", "config": {"dtype": "float32"}}, "dtype": "float32", "use_bias": true, "bias_regularizer": null, "kernel_constraint": null, "filters": 896, "strides": [1, 1], "name": "Block17_4_Conv2d_1x1", "bias_constraint": null, "activity_regularizer": null, "padding": "same"}}, {"name": "lambda_9", "inbound_nodes": [[["Block17_4_Conv2d_1x1", 0, 0, {}]]], "class_name": "Lambda", "config": {"output_shape_module": null, "output_shape": [8, 8, 896], "trainable": false, "arguments": {"scale": 0.1}, "function_type": "lambda", "name": "lambda_9", "module": "tensorflow.python.keras.layers.core", "function": ["4wIAAAAAAAAAAgAAAAIAAABDAAAAcwgAAAB8AAB8AQAUUykBTqkAKQLaAXjaBXNjYWxlcgEAAABy\nAQAAAPovQzovVXNlcnMvSVM5NjI3My9EZXNrdG9wL2luY2VwdGlvbl9yZXNuZXRfdjEucHnaB3Nj\nYWxpbmcZAAAAcwIAAAAAAQ==\n", null, null], "dtype": "float32", "output_shape_type": "raw"}}, {"name": "add_9", "inbound_nodes": [[["Block17_3_Activation", 0, 0, {}], ["lambda_9", 0, 0, {}]]], "class_name": "Add", "config": {"name": "add_9", "trainable": false, "dtype": "float32"}}, {"name": "Block17_4_Activation", "inbound_nodes": [[["add_9", 0, 0, {}]]], "class_name": "Activation", "config": {"name": "Block17_4_Activation", "trainable": false, "dtype": "float32", "activation": "relu"}}, {"name": "Block17_5_Branch_1_Conv2d_0a_1x1", "inbound_nodes": [[["Block17_4_Activation", 0, 0, {}]]], "class_name": "Conv2D", "config": {"kernel_initializer": {"class_name": "VarianceScaling", "config": {"mode": "fan_avg", "distribution": "uniform", "seed": null, "scale": 1, "dtype": "float32"}}, "dilation_rate": [1, 1], "data_format": "channels_last", "trainable": false, "kernel_regularizer": null, "kernel_size": [1, 1], "activation": "linear", "bias_initializer": {"class_name": "Zeros", "config": {"dtype": "float32"}}, "dtype": "float32", "use_bias": false, "bias_regularizer": null, "kernel_constraint": null, "filters": 128, "strides": [1, 1], "name": "Block17_5_Branch_1_Conv2d_0a_1x1", "bias_constraint": null, "activity_regularizer": null, "padding": "same"}}, {"name": "Block17_5_Branch_1_Conv2d_0a_1x1_BatchNorm", "inbound_nodes": [[["Block17_5_Branch_1_Conv2d_0a_1x1", 0, 0, {}]]], "class_name": "BatchNormalization", "config": {"center": true, "beta_initializer": {"class_name": "Zeros", "config": {"dtype": "float32"}}, "trainable": false, "beta_constraint": null, "beta_regularizer": null, "gamma_initializer": {"class_name": "Ones", "config": {"dtype": "float32"}}, "scale": false, "epsilon": 0.001, "moving_variance_initializer": {"class_name": "Ones", "config": {"dtype": "float32"}}, "axis": [3], "moving_mean_initializer": {"class_name": "Zeros", "config": {"dtype": "float32"}}, "dtype": "float32", "gamma_constraint": null, "name": "Block17_5_Branch_1_Conv2d_0a_1x1_BatchNorm", "gamma_regularizer": null, "momentum": 0.995}}, {"name": "Block17_5_Branch_1_Conv2d_0a_1x1_Activation", "inbound_nodes": [[["Block17_5_Branch_1_Conv2d_0a_1x1_BatchNorm", 0, 0, {}]]], "class_name": "Activation", "config": {"name": "Block17_5_Branch_1_Conv2d_0a_1x1_Activation", "trainable": false, "dtype": "float32", "activation": "relu"}}, {"name": "Block17_5_Branch_1_Conv2d_0b_1x7", "inbound_nodes": [[["Block17_5_Branch_1_Conv2d_0a_1x1_Activation", 0, 0, {}]]], "class_name": "Conv2D", "config": {"kernel_initializer": {"class_name": "VarianceScaling", "config": {"mode": "fan_avg", "distribution": "uniform", "seed": null, "scale": 1, "dtype": "float32"}}, "dilation_rate": [1, 1], "data_format": "channels_last", "trainable": false, "kernel_regularizer": null, "kernel_size": [1, 7], "activation": "linear", "bias_initializer": {"class_name": "Zeros", "config": {"dtype": "float32"}}, "dtype": "float32", "use_bias": false, "bias_regularizer": null, "kernel_constraint": null, "filters": 128, "strides": [1, 1], "name": "Block17_5_Branch_1_Conv2d_0b_1x7", "bias_constraint": null, "activity_regularizer": null, "padding": "same"}}, {"name": "Block17_5_Branch_1_Conv2d_0b_1x7_BatchNorm", "inbound_nodes": [[["Block17_5_Branch_1_Conv2d_0b_1x7", 0, 0, {}]]], "class_name": "BatchNormalization", "config": {"center": true, "beta_initializer": {"class_name": "Zeros", "config": {"dtype": "float32"}}, "trainable": false, "beta_constraint": null, "beta_regularizer": null, "gamma_initializer": {"class_name": "Ones", "config": {"dtype": "float32"}}, "scale": false, "epsilon": 0.001, "moving_variance_initializer": {"class_name": "Ones", "config": {"dtype": "float32"}}, "axis": [3], "moving_mean_initializer": {"class_name": "Zeros", "config": {"dtype": "float32"}}, "dtype": "float32", "gamma_constraint": null, "name": "Block17_5_Branch_1_Conv2d_0b_1x7_BatchNorm", "gamma_regularizer": null, "momentum": 0.995}}, {"name": "Block17_5_Branch_1_Conv2d_0b_1x7_Activation", "inbound_nodes": [[["Block17_5_Branch_1_Conv2d_0b_1x7_BatchNorm", 0, 0, {}]]], "class_name": "Activation", "config": {"name": "Block17_5_Branch_1_Conv2d_0b_1x7_Activation", "trainable": false, "dtype": "float32", "activation": "relu"}}, {"name": "Block17_5_Branch_0_Conv2d_1x1", "inbound_nodes": [[["Block17_4_Activation", 0, 0, {}]]], "class_name": "Conv2D", "config": {"kernel_initializer": {"class_name": "VarianceScaling", "config": {"mode": "fan_avg", "distribution": "uniform", "seed": null, "scale": 1, "dtype": "float32"}}, "dilation_rate": [1, 1], "data_format": "channels_last", "trainable": false, "kernel_regularizer": null, "kernel_size": [1, 1], "activation": "linear", "bias_initializer": {"class_name": "Zeros", "config": {"dtype": "float32"}}, "dtype": "float32", "use_bias": false, "bias_regularizer": null, "kernel_constraint": null, "filters": 128, "strides": [1, 1], "name": "Block17_5_Branch_0_Conv2d_1x1", "bias_constraint": null, "activity_regularizer": null, "padding": "same"}}, {"name": "Block17_5_Branch_1_Conv2d_0c_7x1", "inbound_nodes": [[["Block17_5_Branch_1_Conv2d_0b_1x7_Activation", 0, 0, {}]]], "class_name": "Conv2D", "config": {"kernel_initializer": {"class_name": "VarianceScaling", "config": {"mode": "fan_avg", "distribution": "uniform", "seed": null, "scale": 1, "dtype": "float32"}}, "dilation_rate": [1, 1], "data_format": "channels_last", "trainable": false, "kernel_regularizer": null, "kernel_size": [7, 1], "activation": "linear", "bias_initializer": {"class_name": "Zeros", "config": {"dtype": "float32"}}, "dtype": "float32", "use_bias": false, "bias_regularizer": null, "kernel_constraint": null, "filters": 128, "strides": [1, 1], "name": "Block17_5_Branch_1_Conv2d_0c_7x1", "bias_constraint": null, "activity_regularizer": null, "padding": "same"}}, {"name": "Block17_5_Branch_0_Conv2d_1x1_BatchNorm", "inbound_nodes": [[["Block17_5_Branch_0_Conv2d_1x1", 0, 0, {}]]], "class_name": "BatchNormalization", "config": {"center": true, "beta_initializer": {"class_name": "Zeros", "config": {"dtype": "float32"}}, "trainable": false, "beta_constraint": null, "beta_regularizer": null, "gamma_initializer": {"class_name": "Ones", "config": {"dtype": "float32"}}, "scale": false, "epsilon": 0.001, "moving_variance_initializer": {"class_name": "Ones", "config": {"dtype": "float32"}}, "axis": [3], "moving_mean_initializer": {"class_name": "Zeros", "config": {"dtype": "float32"}}, "dtype": "float32", "gamma_constraint": null, "name": "Block17_5_Branch_0_Conv2d_1x1_BatchNorm", "gamma_regularizer": null, "momentum": 0.995}}, {"name": "Block17_5_Branch_1_Conv2d_0c_7x1_BatchNorm", "inbound_nodes": [[["Block17_5_Branch_1_Conv2d_0c_7x1", 0, 0, {}]]], "class_name": "BatchNormalization", "config": {"center": true, "beta_initializer": {"class_name": "Zeros", "config": {"dtype": "float32"}}, "trainable": false, "beta_constraint": null, "beta_regularizer": null, "gamma_initializer": {"class_name": "Ones", "config": {"dtype": "float32"}}, "scale": false, "epsilon": 0.001, "moving_variance_initializer": {"class_name": "Ones", "config": {"dtype": "float32"}}, "axis": [3], "moving_mean_initializer": {"class_name": "Zeros", "config": {"dtype": "float32"}}, "dtype": "float32", "gamma_constraint": null, "name": "Block17_5_Branch_1_Conv2d_0c_7x1_BatchNorm", "gamma_regularizer": null, "momentum": 0.995}}, {"name": "Block17_5_Branch_0_Conv2d_1x1_Activation", "inbound_nodes": [[["Block17_5_Branch_0_Conv2d_1x1_BatchNorm", 0, 0, {}]]], "class_name": "Activation", "config": {"name": "Block17_5_Branch_0_Conv2d_1x1_Activation", "trainable": false, "dtype": "float32", "activation": "relu"}}, {"name": "Block17_5_Branch_1_Conv2d_0c_7x1_Activation", "inbound_nodes": [[["Block17_5_Branch_1_Conv2d_0c_7x1_BatchNorm", 0, 0, {}]]], "class_name": "Activation", "config": {"name": "Block17_5_Branch_1_Conv2d_0c_7x1_Activation", "trainable": false, "dtype": "float32", "activation": "relu"}}, {"name": "Block17_5_Concatenate", "inbound_nodes": [[["Block17_5_Branch_0_Conv2d_1x1_Activation", 0, 0, {}], ["Block17_5_Branch_1_Conv2d_0c_7x1_Activation", 0, 0, {}]]], "class_name": "Concatenate", "config": {"name": "Block17_5_Concatenate", "trainable": false, "dtype": "float32", "axis": 3}}, {"name": "Block17_5_Conv2d_1x1", "inbound_nodes": [[["Block17_5_Concatenate", 0, 0, {}]]], "class_name": "Conv2D", "config": {"kernel_initializer": {"class_name": "VarianceScaling", "config": {"mode": "fan_avg", "distribution": "uniform", "seed": null, "scale": 1, "dtype": "float32"}}, "dilation_rate": [1, 1], "data_format": "channels_last", "trainable": false, "kernel_regularizer": null, "kernel_size": [1, 1], "activation": "linear", "bias_initializer": {"class_name": "Zeros", "config": {"dtype": "float32"}}, "dtype": "float32", "use_bias": true, "bias_regularizer": null, "kernel_constraint": null, "filters": 896, "strides": [1, 1], "name": "Block17_5_Conv2d_1x1", "bias_constraint": null, "activity_regularizer": null, "padding": "same"}}, {"name": "lambda_10", "inbound_nodes": [[["Block17_5_Conv2d_1x1", 0, 0, {}]]], "class_name": "Lambda", "config": {"output_shape_module": null, "output_shape": [8, 8, 896], "trainable": false, "arguments": {"scale": 0.1}, "function_type": "lambda", "name": "lambda_10", "module": "tensorflow.python.keras.layers.core", "function": ["4wIAAAAAAAAAAgAAAAIAAABDAAAAcwgAAAB8AAB8AQAUUykBTqkAKQLaAXjaBXNjYWxlcgEAAABy\nAQAAAPovQzovVXNlcnMvSVM5NjI3My9EZXNrdG9wL2luY2VwdGlvbl9yZXNuZXRfdjEucHnaB3Nj\nYWxpbmcZAAAAcwIAAAAAAQ==\n", null, null], "dtype": "float32", "output_shape_type": "raw"}}, {"name": "add_10", "inbound_nodes": [[["Block17_4_Activation", 0, 0, {}], ["lambda_10", 0, 0, {}]]], "class_name": "Add", "config": {"name": "add_10", "trainable": false, "dtype": "float32"}}, {"name": "Block17_5_Activation", "inbound_nodes": [[["add_10", 0, 0, {}]]], "class_name": "Activation", "config": {"name": "Block17_5_Activation", "trainable": false, "dtype": "float32", "activation": "relu"}}, {"name": "Block17_6_Branch_1_Conv2d_0a_1x1", "inbound_nodes": [[["Block17_5_Activation", 0, 0, {}]]], "class_name": "Conv2D", "config": {"kernel_initializer": {"class_name": "VarianceScaling", "config": {"mode": "fan_avg", "distribution": "uniform", "seed": null, "scale": 1, "dtype": "float32"}}, "dilation_rate": [1, 1], "data_format": "channels_last", "trainable": false, "kernel_regularizer": null, "kernel_size": [1, 1], "activation": "linear", "bias_initializer": {"class_name": "Zeros", "config": {"dtype": "float32"}}, "dtype": "float32", "use_bias": false, "bias_regularizer": null, "kernel_constraint": null, "filters": 128, "strides": [1, 1], "name": "Block17_6_Branch_1_Conv2d_0a_1x1", "bias_constraint": null, "activity_regularizer": null, "padding": "same"}}, {"name": "Block17_6_Branch_1_Conv2d_0a_1x1_BatchNorm", "inbound_nodes": [[["Block17_6_Branch_1_Conv2d_0a_1x1", 0, 0, {}]]], "class_name": "BatchNormalization", "config": {"center": true, "beta_initializer": {"class_name": "Zeros", "config": {"dtype": "float32"}}, "trainable": false, "beta_constraint": null, "beta_regularizer": null, "gamma_initializer": {"class_name": "Ones", "config": {"dtype": "float32"}}, "scale": false, "epsilon": 0.001, "moving_variance_initializer": {"class_name": "Ones", "config": {"dtype": "float32"}}, "axis": [3], "moving_mean_initializer": {"class_name": "Zeros", "config": {"dtype": "float32"}}, "dtype": "float32", "gamma_constraint": null, "name": "Block17_6_Branch_1_Conv2d_0a_1x1_BatchNorm", "gamma_regularizer": null, "momentum": 0.995}}, {"name": "Block17_6_Branch_1_Conv2d_0a_1x1_Activation", "inbound_nodes": [[["Block17_6_Branch_1_Conv2d_0a_1x1_BatchNorm", 0, 0, {}]]], "class_name": "Activation", "config": {"name": "Block17_6_Branch_1_Conv2d_0a_1x1_Activation", "trainable": false, "dtype": "float32", "activation": "relu"}}, {"name": "Block17_6_Branch_1_Conv2d_0b_1x7", "inbound_nodes": [[["Block17_6_Branch_1_Conv2d_0a_1x1_Activation", 0, 0, {}]]], "class_name": "Conv2D", "config": {"kernel_initializer": {"class_name": "VarianceScaling", "config": {"mode": "fan_avg", "distribution": "uniform", "seed": null, "scale": 1, "dtype": "float32"}}, "dilation_rate": [1, 1], "data_format": "channels_last", "trainable": false, "kernel_regularizer": null, "kernel_size": [1, 7], "activation": "linear", "bias_initializer": {"class_name": "Zeros", "config": {"dtype": "float32"}}, "dtype": "float32", "use_bias": false, "bias_regularizer": null, "kernel_constraint": null, "filters": 128, "strides": [1, 1], "name": "Block17_6_Branch_1_Conv2d_0b_1x7", "bias_constraint": null, "activity_regularizer": null, "padding": "same"}}, {"name": "Block17_6_Branch_1_Conv2d_0b_1x7_BatchNorm", "inbound_nodes": [[["Block17_6_Branch_1_Conv2d_0b_1x7", 0, 0, {}]]], "class_name": "BatchNormalization", "config": {"center": true, "beta_initializer": {"class_name": "Zeros", "config": {"dtype": "float32"}}, "trainable": false, "beta_constraint": null, "beta_regularizer": null, "gamma_initializer": {"class_name": "Ones", "config": {"dtype": "float32"}}, "scale": false, "epsilon": 0.001, "moving_variance_initializer": {"class_name": "Ones", "config": {"dtype": "float32"}}, "axis": [3], "moving_mean_initializer": {"class_name": "Zeros", "config": {"dtype": "float32"}}, "dtype": "float32", "gamma_constraint": null, "name": "Block17_6_Branch_1_Conv2d_0b_1x7_BatchNorm", "gamma_regularizer": null, "momentum": 0.995}}, {"name": "Block17_6_Branch_1_Conv2d_0b_1x7_Activation", "inbound_nodes": [[["Block17_6_Branch_1_Conv2d_0b_1x7_BatchNorm", 0, 0, {}]]], "class_name": "Activation", "config": {"name": "Block17_6_Branch_1_Conv2d_0b_1x7_Activation", "trainable": false, "dtype": "float32", "activation": "relu"}}, {"name": "Block17_6_Branch_0_Conv2d_1x1", "inbound_nodes": [[["Block17_5_Activation", 0, 0, {}]]], "class_name": "Conv2D", "config": {"kernel_initializer": {"class_name": "VarianceScaling", "config": {"mode": "fan_avg", "distribution": "uniform", "seed": null, "scale": 1, "dtype": "float32"}}, "dilation_rate": [1, 1], "data_format": "channels_last", "trainable": false, "kernel_regularizer": null, "kernel_size": [1, 1], "activation": "linear", "bias_initializer": {"class_name": "Zeros", "config": {"dtype": "float32"}}, "dtype": "float32", "use_bias": false, "bias_regularizer": null, "kernel_constraint": null, "filters": 128, "strides": [1, 1], "name": "Block17_6_Branch_0_Conv2d_1x1", "bias_constraint": null, "activity_regularizer": null, "padding": "same"}}, {"name": "Block17_6_Branch_1_Conv2d_0c_7x1", "inbound_nodes": [[["Block17_6_Branch_1_Conv2d_0b_1x7_Activation", 0, 0, {}]]], "class_name": "Conv2D", "config": {"kernel_initializer": {"class_name": "VarianceScaling", "config": {"mode": "fan_avg", "distribution": "uniform", "seed": null, "scale": 1, "dtype": "float32"}}, "dilation_rate": [1, 1], "data_format": "channels_last", "trainable": false, "kernel_regularizer": null, "kernel_size": [7, 1], "activation": "linear", "bias_initializer": {"class_name": "Zeros", "config": {"dtype": "float32"}}, "dtype": "float32", "use_bias": false, "bias_regularizer": null, "kernel_constraint": null, "filters": 128, "strides": [1, 1], "name": "Block17_6_Branch_1_Conv2d_0c_7x1", "bias_constraint": null, "activity_regularizer": null, "padding": "same"}}, {"name": "Block17_6_Branch_0_Conv2d_1x1_BatchNorm", "inbound_nodes": [[["Block17_6_Branch_0_Conv2d_1x1", 0, 0, {}]]], "class_name": "BatchNormalization", "config": {"center": true, "beta_initializer": {"class_name": "Zeros", "config": {"dtype": "float32"}}, "trainable": false, "beta_constraint": null, "beta_regularizer": null, "gamma_initializer": {"class_name": "Ones", "config": {"dtype": "float32"}}, "scale": false, "epsilon": 0.001, "moving_variance_initializer": {"class_name": "Ones", "config": {"dtype": "float32"}}, "axis": [3], "moving_mean_initializer": {"class_name": "Zeros", "config": {"dtype": "float32"}}, "dtype": "float32", "gamma_constraint": null, "name": "Block17_6_Branch_0_Conv2d_1x1_BatchNorm", "gamma_regularizer": null, "momentum": 0.995}}, {"name": "Block17_6_Branch_1_Conv2d_0c_7x1_BatchNorm", "inbound_nodes": [[["Block17_6_Branch_1_Conv2d_0c_7x1", 0, 0, {}]]], "class_name": "BatchNormalization", "config": {"center": true, "beta_initializer": {"class_name": "Zeros", "config": {"dtype": "float32"}}, "trainable": false, "beta_constraint": null, "beta_regularizer": null, "gamma_initializer": {"class_name": "Ones", "config": {"dtype": "float32"}}, "scale": false, "epsilon": 0.001, "moving_variance_initializer": {"class_name": "Ones", "config": {"dtype": "float32"}}, "axis": [3], "moving_mean_initializer": {"class_name": "Zeros", "config": {"dtype": "float32"}}, "dtype": "float32", "gamma_constraint": null, "name": "Block17_6_Branch_1_Conv2d_0c_7x1_BatchNorm", "gamma_regularizer": null, "momentum": 0.995}}, {"name": "Block17_6_Branch_0_Conv2d_1x1_Activation", "inbound_nodes": [[["Block17_6_Branch_0_Conv2d_1x1_BatchNorm", 0, 0, {}]]], "class_name": "Activation", "config": {"name": "Block17_6_Branch_0_Conv2d_1x1_Activation", "trainable": false, "dtype": "float32", "activation": "relu"}}, {"name": "Block17_6_Branch_1_Conv2d_0c_7x1_Activation", "inbound_nodes": [[["Block17_6_Branch_1_Conv2d_0c_7x1_BatchNorm", 0, 0, {}]]], "class_name": "Activation", "config": {"name": "Block17_6_Branch_1_Conv2d_0c_7x1_Activation", "trainable": false, "dtype": "float32", "activation": "relu"}}, {"name": "Block17_6_Concatenate", "inbound_nodes": [[["Block17_6_Branch_0_Conv2d_1x1_Activation", 0, 0, {}], ["Block17_6_Branch_1_Conv2d_0c_7x1_Activation", 0, 0, {}]]], "class_name": "Concatenate", "config": {"name": "Block17_6_Concatenate", "trainable": false, "dtype": "float32", "axis": 3}}, {"name": "Block17_6_Conv2d_1x1", "inbound_nodes": [[["Block17_6_Concatenate", 0, 0, {}]]], "class_name": "Conv2D", "config": {"kernel_initializer": {"class_name": "VarianceScaling", "config": {"mode": "fan_avg", "distribution": "uniform", "seed": null, "scale": 1, "dtype": "float32"}}, "dilation_rate": [1, 1], "data_format": "channels_last", "trainable": false, "kernel_regularizer": null, "kernel_size": [1, 1], "activation": "linear", "bias_initializer": {"class_name": "Zeros", "config": {"dtype": "float32"}}, "dtype": "float32", "use_bias": true, "bias_regularizer": null, "kernel_constraint": null, "filters": 896, "strides": [1, 1], "name": "Block17_6_Conv2d_1x1", "bias_constraint": null, "activity_regularizer": null, "padding": "same"}}, {"name": "lambda_11", "inbound_nodes": [[["Block17_6_Conv2d_1x1", 0, 0, {}]]], "class_name": "Lambda", "config": {"output_shape_module": null, "output_shape": [8, 8, 896], "trainable": false, "arguments": {"scale": 0.1}, "function_type": "lambda", "name": "lambda_11", "module": "tensorflow.python.keras.layers.core", "function": ["4wIAAAAAAAAAAgAAAAIAAABDAAAAcwgAAAB8AAB8AQAUUykBTqkAKQLaAXjaBXNjYWxlcgEAAABy\nAQAAAPovQzovVXNlcnMvSVM5NjI3My9EZXNrdG9wL2luY2VwdGlvbl9yZXNuZXRfdjEucHnaB3Nj\nYWxpbmcZAAAAcwIAAAAAAQ==\n", null, null], "dtype": "float32", "output_shape_type": "raw"}}, {"name": "add_11", "inbound_nodes": [[["Block17_5_Activation", 0, 0, {}], ["lambda_11", 0, 0, {}]]], "class_name": "Add", "config": {"name": "add_11", "trainable": false, "dtype": "float32"}}, {"name": "Block17_6_Activation", "inbound_nodes": [[["add_11", 0, 0, {}]]], "class_name": "Activation", "config": {"name": "Block17_6_Activation", "trainable": false, "dtype": "float32", "activation": "relu"}}, {"name": "Block17_7_Branch_1_Conv2d_0a_1x1", "inbound_nodes": [[["Block17_6_Activation", 0, 0, {}]]], "class_name": "Conv2D", "config": {"kernel_initializer": {"class_name": "VarianceScaling", "config": {"mode": "fan_avg", "distribution": "uniform", "seed": null, "scale": 1, "dtype": "float32"}}, "dilation_rate": [1, 1], "data_format": "channels_last", "trainable": false, "kernel_regularizer": null, "kernel_size": [1, 1], "activation": "linear", "bias_initializer": {"class_name": "Zeros", "config": {"dtype": "float32"}}, "dtype": "float32", "use_bias": false, "bias_regularizer": null, "kernel_constraint": null, "filters": 128, "strides": [1, 1], "name": "Block17_7_Branch_1_Conv2d_0a_1x1", "bias_constraint": null, "activity_regularizer": null, "padding": "same"}}, {"name": "Block17_7_Branch_1_Conv2d_0a_1x1_BatchNorm", "inbound_nodes": [[["Block17_7_Branch_1_Conv2d_0a_1x1", 0, 0, {}]]], "class_name": "BatchNormalization", "config": {"center": true, "beta_initializer": {"class_name": "Zeros", "config": {"dtype": "float32"}}, "trainable": false, "beta_constraint": null, "beta_regularizer": null, "gamma_initializer": {"class_name": "Ones", "config": {"dtype": "float32"}}, "scale": false, "epsilon": 0.001, "moving_variance_initializer": {"class_name": "Ones", "config": {"dtype": "float32"}}, "axis": [3], "moving_mean_initializer": {"class_name": "Zeros", "config": {"dtype": "float32"}}, "dtype": "float32", "gamma_constraint": null, "name": "Block17_7_Branch_1_Conv2d_0a_1x1_BatchNorm", "gamma_regularizer": null, "momentum": 0.995}}, {"name": "Block17_7_Branch_1_Conv2d_0a_1x1_Activation", "inbound_nodes": [[["Block17_7_Branch_1_Conv2d_0a_1x1_BatchNorm", 0, 0, {}]]], "class_name": "Activation", "config": {"name": "Block17_7_Branch_1_Conv2d_0a_1x1_Activation", "trainable": false, "dtype": "float32", "activation": "relu"}}, {"name": "Block17_7_Branch_1_Conv2d_0b_1x7", "inbound_nodes": [[["Block17_7_Branch_1_Conv2d_0a_1x1_Activation", 0, 0, {}]]], "class_name": "Conv2D", "config": {"kernel_initializer": {"class_name": "VarianceScaling", "config": {"mode": "fan_avg", "distribution": "uniform", "seed": null, "scale": 1, "dtype": "float32"}}, "dilation_rate": [1, 1], "data_format": "channels_last", "trainable": false, "kernel_regularizer": null, "kernel_size": [1, 7], "activation": "linear", "bias_initializer": {"class_name": "Zeros", "config": {"dtype": "float32"}}, "dtype": "float32", "use_bias": false, "bias_regularizer": null, "kernel_constraint": null, "filters": 128, "strides": [1, 1], "name": "Block17_7_Branch_1_Conv2d_0b_1x7", "bias_constraint": null, "activity_regularizer": null, "padding": "same"}}, {"name": "Block17_7_Branch_1_Conv2d_0b_1x7_BatchNorm", "inbound_nodes": [[["Block17_7_Branch_1_Conv2d_0b_1x7", 0, 0, {}]]], "class_name": "BatchNormalization", "config": {"center": true, "beta_initializer": {"class_name": "Zeros", "config": {"dtype": "float32"}}, "trainable": false, "beta_constraint": null, "beta_regularizer": null, "gamma_initializer": {"class_name": "Ones", "config": {"dtype": "float32"}}, "scale": false, "epsilon": 0.001, "moving_variance_initializer": {"class_name": "Ones", "config": {"dtype": "float32"}}, "axis": [3], "moving_mean_initializer": {"class_name": "Zeros", "config": {"dtype": "float32"}}, "dtype": "float32", "gamma_constraint": null, "name": "Block17_7_Branch_1_Conv2d_0b_1x7_BatchNorm", "gamma_regularizer": null, "momentum": 0.995}}, {"name": "Block17_7_Branch_1_Conv2d_0b_1x7_Activation", "inbound_nodes": [[["Block17_7_Branch_1_Conv2d_0b_1x7_BatchNorm", 0, 0, {}]]], "class_name": "Activation", "config": {"name": "Block17_7_Branch_1_Conv2d_0b_1x7_Activation", "trainable": false, "dtype": "float32", "activation": "relu"}}, {"name": "Block17_7_Branch_0_Conv2d_1x1", "inbound_nodes": [[["Block17_6_Activation", 0, 0, {}]]], "class_name": "Conv2D", "config": {"kernel_initializer": {"class_name": "VarianceScaling", "config": {"mode": "fan_avg", "distribution": "uniform", "seed": null, "scale": 1, "dtype": "float32"}}, "dilation_rate": [1, 1], "data_format": "channels_last", "trainable": false, "kernel_regularizer": null, "kernel_size": [1, 1], "activation": "linear", "bias_initializer": {"class_name": "Zeros", "config": {"dtype": "float32"}}, "dtype": "float32", "use_bias": false, "bias_regularizer": null, "kernel_constraint": null, "filters": 128, "strides": [1, 1], "name": "Block17_7_Branch_0_Conv2d_1x1", "bias_constraint": null, "activity_regularizer": null, "padding": "same"}}, {"name": "Block17_7_Branch_1_Conv2d_0c_7x1", "inbound_nodes": [[["Block17_7_Branch_1_Conv2d_0b_1x7_Activation", 0, 0, {}]]], "class_name": "Conv2D", "config": {"kernel_initializer": {"class_name": "VarianceScaling", "config": {"mode": "fan_avg", "distribution": "uniform", "seed": null, "scale": 1, "dtype": "float32"}}, "dilation_rate": [1, 1], "data_format": "channels_last", "trainable": false, "kernel_regularizer": null, "kernel_size": [7, 1], "activation": "linear", "bias_initializer": {"class_name": "Zeros", "config": {"dtype": "float32"}}, "dtype": "float32", "use_bias": false, "bias_regularizer": null, "kernel_constraint": null, "filters": 128, "strides": [1, 1], "name": "Block17_7_Branch_1_Conv2d_0c_7x1", "bias_constraint": null, "activity_regularizer": null, "padding": "same"}}, {"name": "Block17_7_Branch_0_Conv2d_1x1_BatchNorm", "inbound_nodes": [[["Block17_7_Branch_0_Conv2d_1x1", 0, 0, {}]]], "class_name": "BatchNormalization", "config": {"center": true, "beta_initializer": {"class_name": "Zeros", "config": {"dtype": "float32"}}, "trainable": false, "beta_constraint": null, "beta_regularizer": null, "gamma_initializer": {"class_name": "Ones", "config": {"dtype": "float32"}}, "scale": false, "epsilon": 0.001, "moving_variance_initializer": {"class_name": "Ones", "config": {"dtype": "float32"}}, "axis": [3], "moving_mean_initializer": {"class_name": "Zeros", "config": {"dtype": "float32"}}, "dtype": "float32", "gamma_constraint": null, "name": "Block17_7_Branch_0_Conv2d_1x1_BatchNorm", "gamma_regularizer": null, "momentum": 0.995}}, {"name": "Block17_7_Branch_1_Conv2d_0c_7x1_BatchNorm", "inbound_nodes": [[["Block17_7_Branch_1_Conv2d_0c_7x1", 0, 0, {}]]], "class_name": "BatchNormalization", "config": {"center": true, "beta_initializer": {"class_name": "Zeros", "config": {"dtype": "float32"}}, "trainable": false, "beta_constraint": null, "beta_regularizer": null, "gamma_initializer": {"class_name": "Ones", "config": {"dtype": "float32"}}, "scale": false, "epsilon": 0.001, "moving_variance_initializer": {"class_name": "Ones", "config": {"dtype": "float32"}}, "axis": [3], "moving_mean_initializer": {"class_name": "Zeros", "config": {"dtype": "float32"}}, "dtype": "float32", "gamma_constraint": null, "name": "Block17_7_Branch_1_Conv2d_0c_7x1_BatchNorm", "gamma_regularizer": null, "momentum": 0.995}}, {"name": "Block17_7_Branch_0_Conv2d_1x1_Activation", "inbound_nodes": [[["Block17_7_Branch_0_Conv2d_1x1_BatchNorm", 0, 0, {}]]], "class_name": "Activation", "config": {"name": "Block17_7_Branch_0_Conv2d_1x1_Activation", "trainable": false, "dtype": "float32", "activation": "relu"}}, {"name": "Block17_7_Branch_1_Conv2d_0c_7x1_Activation", "inbound_nodes": [[["Block17_7_Branch_1_Conv2d_0c_7x1_BatchNorm", 0, 0, {}]]], "class_name": "Activation", "config": {"name": "Block17_7_Branch_1_Conv2d_0c_7x1_Activation", "trainable": false, "dtype": "float32", "activation": "relu"}}, {"name": "Block17_7_Concatenate", "inbound_nodes": [[["Block17_7_Branch_0_Conv2d_1x1_Activation", 0, 0, {}], ["Block17_7_Branch_1_Conv2d_0c_7x1_Activation", 0, 0, {}]]], "class_name": "Concatenate", "config": {"name": "Block17_7_Concatenate", "trainable": false, "dtype": "float32", "axis": 3}}, {"name": "Block17_7_Conv2d_1x1", "inbound_nodes": [[["Block17_7_Concatenate", 0, 0, {}]]], …
ig": {"name": "add_16", "trainable": false, "dtype": "float32"}}, {"name": "Block8_1_Activation", "inbound_nodes": [[["add_16", 0, 0, {}]]], "class_name": "Activation", "config": {"name": "Block8_1_Activation", "trainable": false, "dtype": "float32", "activation": "relu"}}, {"name": "Block8_2_Branch_1_Conv2d_0a_1x1", "inbound_nodes": [[["Block8_1_Activation", 0, 0, {}]]], "class_name": "Conv2D", "config": {"kernel_initializer": {"class_name": "VarianceScaling", "config": {"mode": "fan_avg", "distribution": "uniform", "seed": null, "scale": 1, "dtype": "float32"}}, "dilation_rate": [1, 1], "data_format": "channels_last", "trainable": false, "kernel_regularizer": null, "kernel_size": [1, 1], "activation": "linear", "bias_initializer": {"class_name": "Zeros", "config": {"dtype": "float32"}}, "dtype": "float32", "use_bias": false, "bias_regularizer": null, "kernel_constraint": null, "filters": 192, "strides": [1, 1], "name": "Block8_2_Branch_1_Conv2d_0a_1x1", "bias_constraint": null, "activity_regularizer": null, "padding": "same"}}, {"name": "Block8_2_Branch_1_Conv2d_0a_1x1_BatchNorm", "inbound_nodes": [[["Block8_2_Branch_1_Conv2d_0a_1x1", 0, 0, {}]]], "class_name": "BatchNormalization", "config": {"center": true, "beta_initializer": {"class_name": "Zeros", "config": {"dtype": "float32"}}, "trainable": false, "beta_constraint": null, "beta_regularizer": null, "gamma_initializer": {"class_name": "Ones", "config": {"dtype": "float32"}}, "scale": false, "epsilon": 0.001, "moving_variance_initializer": {"class_name": "Ones", "config": {"dtype": "float32"}}, "axis": [3], "moving_mean_initializer": {"class_name": "Zeros", "config": {"dtype": "float32"}}, "dtype": "float32", "gamma_constraint": null, "name": "Block8_2_Branch_1_Conv2d_0a_1x1_BatchNorm", "gamma_regularizer": null, "momentum": 0.995}}, {"name": "Block8_2_Branch_1_Conv2d_0a_1x1_Activation", "inbound_nodes": [[["Block8_2_Branch_1_Conv2d_0a_1x1_BatchNorm", 0, 0, {}]]], "class_name": "Activation", "config": {"name": "Block8_2_Branch_1_Conv2d_0a_1x1_Activation", "trainable": false, "dtype": "float32", "activation": "relu"}}, {"name": "Block8_2_Branch_1_Conv2d_0b_1x3", "inbound_nodes": [[["Block8_2_Branch_1_Conv2d_0a_1x1_Activation", 0, 0, {}]]], "class_name": "Conv2D", "config": {"kernel_initializer": {"class_name": "VarianceScaling", "config": {"mode": "fan_avg", "distribution": "uniform", "seed": null, "scale": 1, "dtype": "float32"}}, "dilation_rate": [1, 1], "data_format": "channels_last", "trainable": false, "kernel_regularizer": null, "kernel_size": [1, 3], "activation": "linear", "bias_initializer": {"class_name": "Zeros", "config": {"dtype": "float32"}}, "dtype": "float32", "use_bias": false, "bias_regularizer": null, "kernel_constraint": null, "filters": 192, "strides": [1, 1], "name": "Block8_2_Branch_1_Conv2d_0b_1x3", "bias_constraint": null, "activity_regularizer": null, "padding": "same"}}, {"name": "Block8_2_Branch_1_Conv2d_0b_1x3_BatchNorm", "inbound_nodes": [[["Block8_2_Branch_1_Conv2d_0b_1x3", 0, 0, {}]]], "class_name": "BatchNormalization", "config": {"center": true, "beta_initializer": {"class_name": "Zeros", "config": {"dtype": "float32"}}, "trainable": false, "beta_constraint": null, "beta_regularizer": null, "gamma_initializer": {"class_name": "Ones", "config": {"dtype": "float32"}}, "scale": false, "epsilon": 0.001, "moving_variance_initializer": {"class_name": "Ones", "config": {"dtype": "float32"}}, "axis": [3], "moving_mean_initializer": {"class_name": "Zeros", "config": {"dtype": "float32"}}, "dtype": "float32", "gamma_constraint": null, "name": "Block8_2_Branch_1_Conv2d_0b_1x3_BatchNorm", "gamma_regularizer": null, "momentum": 0.995}}, {"name": "Block8_2_Branch_1_Conv2d_0b_1x3_Activation", "inbound_nodes": [[["Block8_2_Branch_1_Conv2d_0b_1x3_BatchNorm", 0, 0, {}]]], "class_name": "Activation", "config": {"name": "Block8_2_Branch_1_Conv2d_0b_1x3_Activation", "trainable": false, "dtype": "float32", "activation": "relu"}}, {"name": "Block8_2_Branch_0_Conv2d_1x1", "inbound_nodes": [[["Block8_1_Activation", 0, 0, {}]]], "class_name": "Conv2D", "config": {"kernel_initializer": {"class_name": "VarianceScaling", "config": {"mode": "fan_avg", "distribution": "uniform", "seed": null, "scale": 1, "dtype": "float32"}}, "dilation_rate": [1, 1], "data_format": "channels_last", "trainable": false, "kernel_regularizer": null, "kernel_size": [1, 1], "activation": "linear", "bias_initializer": {"class_name": "Zeros", "config": {"dtype": "float32"}}, "dtype": "float32", "use_bias": false, "bias_regularizer": null, "kernel_constraint": null, "filters": 192, "strides": [1, 1], "name": "Block8_2_Branch_0_Conv2d_1x1", "bias_constraint": null, "activity_regularizer": null, "padding": "same"}}, {"name": "Block8_2_Branch_1_Conv2d_0c_3x1", "inbound_nodes": [[["Block8_2_Branch_1_Conv2d_0b_1x3_Activation", 0, 0, {}]]], "class_name": "Conv2D", "config": {"kernel_initializer": {"class_name": "VarianceScaling", "config": {"mode": "fan_avg", "distribution": "uniform", "seed": null, "scale": 1, "dtype": "float32"}}, "dilation_rate": [1, 1], "data_format": "channels_last", "trainable": false, "kernel_regularizer": null, "kernel_size": [3, 1], "activation": "linear", "bias_initializer": {"class_name": "Zeros", "config": {"dtype": "float32"}}, "dtype": "float32", "use_bias": false, "bias_regularizer": null, "kernel_constraint": null, "filters": 192, "strides": [1, 1], "name": "Block8_2_Branch_1_Conv2d_0c_3x1", "bias_constraint": null, "activity_regularizer": null, "padding": "same"}}, {"name": "Block8_2_Branch_0_Conv2d_1x1_BatchNorm", "inbound_nodes": [[["Block8_2_Branch_0_Conv2d_1x1", 0, 0, {}]]], "class_name": "BatchNormalization", "config": {"center": true, "beta_initializer": {"class_name": "Zeros", "config": {"dtype": "float32"}}, "trainable": false, "beta_constraint": null, "beta_regularizer": null, "gamma_initializer": {"class_name": "Ones", "config": {"dtype": "float32"}}, "scale": false, "epsilon": 0.001, "moving_variance_initializer": {"class_name": "Ones", "config": {"dtype": "float32"}}, "axis": [3], "moving_mean_initializer": {"class_name": "Zeros", "config": {"dtype": "float32"}}, "dtype": "float32", "gamma_constraint": null, "name": "Block8_2_Branch_0_Conv2d_1x1_BatchNorm", "gamma_regularizer": null, "momentum": 0.995}}, {"name": "Block8_2_Branch_1_Conv2d_0c_3x1_BatchNorm", "inbound_nodes": [[["Block8_2_Branch_1_Conv2d_0c_3x1", 0, 0, {}]]], "class_name": "BatchNormalization", "config": {"center": true, "beta_initializer": {"class_name": "Zeros", "config": {"dtype": "float32"}}, "trainable": false, "beta_constraint": null, "beta_regularizer": null, "gamma_initializer": {"class_name": "Ones", "config": {"dtype": "float32"}}, "scale": false, "epsilon": 0.001, "moving_variance_initializer": {"class_name": "Ones", "config": {"dtype": "float32"}}, "axis": [3], "moving_mean_initializer": {"class_name": "Zeros", "config": {"dtype": "float32"}}, "dtype": "float32", "gamma_constraint": null, "name": "Block8_2_Branch_1_Conv2d_0c_3x1_BatchNorm", "gamma_regularizer": null, "momentum": 0.995}}, {"name": "Block8_2_Branch_0_Conv2d_1x1_Activation", "inbound_nodes": [[["Block8_2_Branch_0_Conv2d_1x1_BatchNorm", 0, 0, {}]]], "class_name": "Activation", "config": {"name": "Block8_2_Branch_0_Conv2d_1x1_Activation", "trainable": false, "dtype": "float32", "activation": "relu"}}, {"name": "Block8_2_Branch_1_Conv2d_0c_3x1_Activation", "inbound_nodes": [[["Block8_2_Branch_1_Conv2d_0c_3x1_BatchNorm", 0, 0, {}]]], "class_name": "Activation", "config": {"name": "Block8_2_Branch_1_Conv2d_0c_3x1_Activation", "trainable": false, "dtype": "float32", "activation": "relu"}}, {"name": "Block8_2_Concatenate", "inbound_nodes": [[["Block8_2_Branch_0_Conv2d_1x1_Activation", 0, 0, {}], ["Block8_2_Branch_1_Conv2d_0c_3x1_Activation", 0, 0, {}]]], "class_name": "Concatenate", "config": {"name": "Block8_2_Concatenate", "trainable": false, "dtype": "float32", "axis": 3}}, {"name": "Block8_2_Conv2d_1x1", "inbound_nodes": [[["Block8_2_Concatenate", 0, 0, {}]]], "class_name": "Conv2D", "config": {"kernel_initializer": {"class_name": "VarianceScaling", "config": {"mode": "fan_avg", "distribution": "uniform", "seed": null, "scale": 1, "dtype": "float32"}}, "dilation_rate": [1, 1], "data_format": "channels_last", "trainable": false, "kernel_regularizer": null, "kernel_size": [1, 1], "activation": "linear", "bias_initializer": {"class_name": "Zeros", "config": {"dtype": "float32"}}, "dtype": "float32", "use_bias": true, "bias_regularizer": null, "kernel_constraint": null, "filters": 1792, "strides": [1, 1], "name": "Block8_2_Conv2d_1x1", "bias_constraint": null, "activity_regularizer": null, "padding": "same"}}, {"name": "lambda_17", "inbound_nodes": [[["Block8_2_Conv2d_1x1", 0, 0, {}]]], "class_name": "Lambda", "config": {"output_shape_module": null, "output_shape": [3, 3, 1792], "trainable": false, "arguments": {"scale": 0.2}, "function_type": "lambda", "name": "lambda_17", "module": "tensorflow.python.keras.layers.core", "function": ["4wIAAAAAAAAAAgAAAAIAAABDAAAAcwgAAAB8AAB8AQAUUykBTqkAKQLaAXjaBXNjYWxlcgEAAABy\nAQAAAPovQzovVXNlcnMvSVM5NjI3My9EZXNrdG9wL2luY2VwdGlvbl9yZXNuZXRfdjEucHnaB3Nj\nYWxpbmcZAAAAcwIAAAAAAQ==\n", null, null], "dtype": "float32", "output_shape_type": "raw"}}, {"name": "add_17", "inbound_nodes": [[["Block8_1_Activation", 0, 0, {}], ["lambda_17", 0, 0, {}]]], "class_name": "Add", "config": {"name": "add_17", "trainable": false, "dtype": "float32"}}, {"name": "Block8_2_Activation", "inbound_nodes": [[["add_17", 0, 0, {}]]], "class_name": "Activation", "config": {"name": "Block8_2_Activation", "trainable": false, "dtype": "float32", "activation": "relu"}}, {"name": "Block8_3_Branch_1_Conv2d_0a_1x1", "inbound_nodes": [[["Block8_2_Activation", 0, 0, {}]]], "class_name": "Conv2D", "config": {"kernel_initializer": {"class_name": "VarianceScaling", "config": {"mode": "fan_avg", "distribution": "uniform", "seed": null, "scale": 1, "dtype": "float32"}}, "dilation_rate": [1, 1], "data_format": "channels_last", "trainable": false, "kernel_regularizer": null, "kernel_size": [1, 1], "activation": "linear", "bias_initializer": {"class_name": "Zeros", "config": {"dtype": "float32"}}, "dtype": "float32", "use_bias": false, "bias_regularizer": null, "kernel_constraint": null, "filters": 192, "strides": [1, 1], "name": "Block8_3_Branch_1_Conv2d_0a_1x1", "bias_constraint": null, "activity_regularizer": null, "padding": "same"}}, {"name": "Block8_3_Branch_1_Conv2d_0a_1x1_BatchNorm", "inbound_nodes": [[["Block8_3_Branch_1_Conv2d_0a_1x1", 0, 0, {}]]], "class_name": "BatchNormalization", "config": {"center": true, "beta_initializer": {"class_name": "Zeros", "config": {"dtype": "float32"}}, "trainable": false, "beta_constraint": null, "beta_regularizer": null, "gamma_initializer": {"class_name": "Ones", "config": {"dtype": "float32"}}, "scale": false, "epsilon": 0.001, "moving_variance_initializer": {"class_name": "Ones", "config": {"dtype": "float32"}}, "axis": [3], "moving_mean_initializer": {"class_name": "Zeros", "config": {"dtype": "float32"}}, "dtype": "float32", "gamma_constraint": null, "name": "Block8_3_Branch_1_Conv2d_0a_1x1_BatchNorm", "gamma_regularizer": null, "momentum": 0.995}}, {"name": "Block8_3_Branch_1_Conv2d_0a_1x1_Activation", "inbound_nodes": [[["Block8_3_Branch_1_Conv2d_0a_1x1_BatchNorm", 0, 0, {}]]], "class_name": "Activation", "config": {"name": "Block8_3_Branch_1_Conv2d_0a_1x1_Activation", "trainable": false, "dtype": "float32", "activation": "relu"}}, {"name": "Block8_3_Branch_1_Conv2d_0b_1x3", "inbound_nodes": [[["Block8_3_Branch_1_Conv2d_0a_1x1_Activation", 0, 0, {}]]], "class_name": "Conv2D", "config": {"kernel_initializer": {"class_name": "VarianceScaling", "config": {"mode": "fan_avg", "distribution": "uniform", "seed": null, "scale": 1, "dtype": "float32"}}, "dilation_rate": [1, 1], "data_format": "channels_last", "trainable": false, "kernel_regularizer": null, "kernel_size": [1, 3], "activation": "linear", "bias_initializer": {"class_name": "Zeros", "config": {"dtype": "float32"}}, "dtype": "float32", "use_bias": false, "bias_regularizer": null, "kernel_constraint": null, "filters": 192, "strides": [1, 1], "name": "Block8_3_Branch_1_Conv2d_0b_1x3", "bias_constraint": null, "activity_regularizer": null, "padding": "same"}}, {"name": "Block8_3_Branch_1_Conv2d_0b_1x3_BatchNorm", "inbound_nodes": [[["Block8_3_Branch_1_Conv2d_0b_1x3", 0, 0, {}]]], "class_name": "BatchNormalization", "config": {"center": true, "beta_initializer": {"class_name": "Zeros", "config": {"dtype": "float32"}}, "trainable": false, "beta_constraint": null, "beta_regularizer": null, "gamma_initializer": {"class_name": "Ones", "config": {"dtype": "float32"}}, "scale": false, "epsilon": 0.001, "moving_variance_initializer": {"class_name": "Ones", "config": {"dtype": "float32"}}, "axis": [3], "moving_mean_initializer": {"class_name": "Zeros", "config": {"dtype": "float32"}}, "dtype": "float32", "gamma_constraint": null, "name": "Block8_3_Branch_1_Conv2d_0b_1x3_BatchNorm", "gamma_regularizer": null, "momentum": 0.995}}, {"name": "Block8_3_Branch_1_Conv2d_0b_1x3_Activation", "inbound_nodes": [[["Block8_3_Branch_1_Conv2d_0b_1x3_BatchNorm", 0, 0, {}]]], "class_name": "Activation", "config": {"name": "Block8_3_Branch_1_Conv2d_0b_1x3_Activation", "trainable": false, "dtype": "float32", "activation": "relu"}}, {"name": "Block8_3_Branch_0_Conv2d_1x1", "inbound_nodes": [[["Block8_2_Activation", 0, 0, {}]]], "class_name": "Conv2D", "config": {"kernel_initializer": {"class_name": "VarianceScaling", "config": {"mode": "fan_avg", "distribution": "uniform", "seed": null, "scale": 1, "dtype": "float32"}}, "dilation_rate": [1, 1], "data_format": "channels_last", "trainable": false, "kernel_regularizer": null, "kernel_size": [1, 1], "activation": "linear", "bias_initializer": {"class_name": "Zeros", "config": {"dtype": "float32"}}, "dtype": "float32", "use_bias": false, "bias_regularizer": null, "kernel_constraint": null, "filters": 192, "strides": [1, 1], "name": "Block8_3_Branch_0_Conv2d_1x1", "bias_constraint": null, "activity_regularizer": null, "padding": "same"}}, {"name": "Block8_3_Branch_1_Conv2d_0c_3x1", "inbound_nodes": [[["Block8_3_Branch_1_Conv2d_0b_1x3_Activation", 0, 0, {}]]], "class_name": "Conv2D", "config": {"kernel_initializer": {"class_name": "VarianceScaling", "config": {"mode": "fan_avg", "distribution": "uniform", "seed": null, "scale": 1, "dtype": "float32"}}, "dilation_rate": [1, 1], "data_format": "channels_last", "trainable": false, "kernel_regularizer": null, "kernel_size": [3, 1], "activation": "linear", "bias_initializer": {"class_name": "Zeros", "config": {"dtype": "float32"}}, "dtype": "float32", "use_bias": false, "bias_regularizer": null, "kernel_constraint": null, "filters": 192, "strides": [1, 1], "name": "Block8_3_Branch_1_Conv2d_0c_3x1", "bias_constraint": null, "activity_regularizer": null, "padding": "same"}}, {"name": "Block8_3_Branch_0_Conv2d_1x1_BatchNorm", "inbound_nodes": [[["Block8_3_Branch_0_Conv2d_1x1", 0, 0, {}]]], "class_name": "BatchNormalization", "config": {"center": true, "beta_initializer": {"class_name": "Zeros", "config": {"dtype": "float32"}}, "trainable": false, "beta_constraint": null, "beta_regularizer": null, "gamma_initializer": {"class_name": "Ones", "config": {"dtype": "float32"}}, "scale": false, "epsilon": 0.001, "moving_variance_initializer": {"class_name": "Ones", "config": {"dtype": "float32"}}, "axis": [3], "moving_mean_initializer": {"class_name": "Zeros", "config": {"dtype": "float32"}}, "dtype": "float32", "gamma_constraint": null, "name": "Block8_3_Branch_0_Conv2d_1x1_BatchNorm", "gamma_regularizer": null, "momentum": 0.995}}, {"name": "Block8_3_Branch_1_Conv2d_0c_3x1_BatchNorm", "inbound_nodes": [[["Block8_3_Branch_1_Conv2d_0c_3x1", 0, 0, {}]]], "class_name": "BatchNormalization", "config": {"center": true, "beta_initializer": {"class_name": "Zeros", "config": {"dtype": "float32"}}, "trainable": false, "beta_constraint": null, "beta_regularizer": null, "gamma_initializer": {"class_name": "Ones", "config": {"dtype": "float32"}}, "scale": false, "epsilon": 0.001, "moving_variance_initializer": {"class_name": "Ones", "config": {"dtype": "float32"}}, "axis": [3], "moving_mean_initializer": {"class_name": "Zeros", "config": {"dtype": "float32"}}, "dtype": "float32", "gamma_constraint": null, "name": "Block8_3_Branch_1_Conv2d_0c_3x1_BatchNorm", "gamma_regularizer": null, "momentum": 0.995}}, {"name": "Block8_3_Branch_0_Conv2d_1x1_Activation", "inbound_nodes": [[["Block8_3_Branch_0_Conv2d_1x1_BatchNorm", 0, 0, {}]]], "class_name": "Activation", "config": {"name": "Block8_3_Branch_0_Conv2d_1x1_Activation", "trainable": false, "dtype": "float32", "activation": "relu"}}, {"name": "Block8_3_Branch_1_Conv2d_0c_3x1_Activation", "inbound_nodes": [[["Block8_3_Branch_1_Conv2d_0c_3x1_BatchNorm", 0, 0, {}]]], "class_name": "Activation", "config": {"name": "Block8_3_Branch_1_Conv2d_0c_3x1_Activation", "trainable": false, "dtype": "float32", "activation": "relu"}}, {"name": "Block8_3_Concatenate", "inbound_nodes": [[["Block8_3_Branch_0_Conv2d_1x1_Activation", 0, 0, {}], ["Block8_3_Branch_1_Conv2d_0c_3x1_Activation", 0, 0, {}]]], "class_name": "Concatenate", "config": {"name": "Block8_3_Concatenate", "trainable": false, "dtype": "float32", "axis": 3}}, {"name": "Block8_3_Conv2d_1x1", "inbound_nodes": [[["Block8_3_Concatenate", 0, 0, {}]]], "class_name": "Conv2D", "config": {"kernel_initializer": {"class_name": "VarianceScaling", "config": {"mode": "fan_avg", "distribution": "uniform", "seed": null, "scale": 1, "dtype": "float32"}}, "dilation_rate": [1, 1], "data_format": "channels_last", "trainable": false, "kernel_regularizer": null, "kernel_size": [1, 1], "activation": "linear", "bias_initializer": {"class_name": "Zeros", "config": {"dtype": "float32"}}, "dtype": "float32", "use_bias": true, "bias_regularizer": null, "kernel_constraint": null, "filters": 1792, "strides": [1, 1], "name": "Block8_3_Conv2d_1x1", "bias_constraint": null, "activity_regularizer": null, "padding": "same"}}, {"name": "lambda_18", "inbound_nodes": [[["Block8_3_Conv2d_1x1", 0, 0, {}]]], "class_name": "Lambda", "config": {"output_shape_module": null, "output_shape": [3, 3, 1792], "trainable": false, "arguments": {"scale": 0.2}, "function_type": "lambda", "name": "lambda_18", "module": "tensorflow.python.keras.layers.core", "function": ["4wIAAAAAAAAAAgAAAAIAAABDAAAAcwgAAAB8AAB8AQAUUykBTqkAKQLaAXjaBXNjYWxlcgEAAABy\nAQAAAPovQzovVXNlcnMvSVM5NjI3My9EZXNrdG9wL2luY2VwdGlvbl9yZXNuZXRfdjEucHnaB3Nj\nYWxpbmcZAAAAcwIAAAAAAQ==\n", null, null], "dtype": "float32", "output_shape_type": "raw"}}, {"name": "add_18", "inbound_nodes": [[["Block8_2_Activation", 0, 0, {}], ["lambda_18", 0, 0, {}]]], "class_name": "Add", "config": {"name": "add_18", "trainable": false, "dtype": "float32"}}, {"name": "Block8_3_Activation", "inbound_nodes": [[["add_18", 0, 0, {}]]], "class_name": "Activation", "config": {"name": "Block8_3_Activation", "trainable": false, "dtype": "float32", "activation": "relu"}}, {"name": "Block8_4_Branch_1_Conv2d_0a_1x1", "inbound_nodes": [[["Block8_3_Activation", 0, 0, {}]]], "class_name": "Conv2D", "config": {"kernel_initializer": {"class_name": "VarianceScaling", "config": {"mode": "fan_avg", "distribution": "uniform", "seed": null, "scale": 1, "dtype": "float32"}}, "dilation_rate": [1, 1], "data_format": "channels_last", "trainable": false, "kernel_regularizer": null, "kernel_size": [1, 1], "activation": "linear", "bias_initializer": {"class_name": "Zeros", "config": {"dtype": "float32"}}, "dtype": "float32", "use_bias": false, "bias_regularizer": null, "kernel_constraint": null, "filters": 192, "strides": [1, 1], "name": "Block8_4_Branch_1_Conv2d_0a_1x1", "bias_constraint": null, "activity_regularizer": null, "padding": "same"}}, {"name": "Block8_4_Branch_1_Conv2d_0a_1x1_BatchNorm", "inbound_nodes": [[["Block8_4_Branch_1_Conv2d_0a_1x1", 0, 0, {}]]], "class_name": "BatchNormalization", "config": {"center": true, "beta_initializer": {"class_name": "Zeros", "config": {"dtype": "float32"}}, "trainable": false, "beta_constraint": null, "beta_regularizer": null, "gamma_initializer": {"class_name": "Ones", "config": {"dtype": "float32"}}, "scale": false, "epsilon": 0.001, "moving_variance_initializer": {"class_name": "Ones", "config": {"dtype": "float32"}}, "axis": [3], "moving_mean_initializer": {"class_name": "Zeros", "config": {"dtype": "float32"}}, "dtype": "float32", "gamma_constraint": null, "name": "Block8_4_Branch_1_Conv2d_0a_1x1_BatchNorm", "gamma_regularizer": null, "momentum": 0.995}}, {"name": "Block8_4_Branch_1_Conv2d_0a_1x1_Activation", "inbound_nodes": [[["Block8_4_Branch_1_Conv2d_0a_1x1_BatchNorm", 0, 0, {}]]], "class_name": "Activation", "config": {"name": "Block8_4_Branch_1_Conv2d_0a_1x1_Activation", "trainable": false, "dtype": "float32", "activation": "relu"}}, {"name": "Block8_4_Branch_1_Conv2d_0b_1x3", "inbound_nodes": [[["Block8_4_Branch_1_Conv2d_0a_1x1_Activation", 0, 0, {}]]], "class_name": "Conv2D", "config": {"kernel_initializer": {"class_name": "VarianceScaling", "config": {"mode": "fan_avg", "distribution": "uniform", "seed": null, "scale": 1, "dtype": "float32"}}, "dilation_rate": [1, 1], "data_format": "channels_last", "trainable": false, "kernel_regularizer": null, "kernel_size": [1, 3], "activation": "linear", "bias_initializer": {"class_name": "Zeros", "config": {"dtype": "float32"}}, "dtype": "float32", "use_bias": false, "bias_regularizer": null, "kernel_constraint": null, "filters": 192, "strides": [1, 1], "name": "Block8_4_Branch_1_Conv2d_0b_1x3", "bias_constraint": null, "activity_regularizer": null, "padding": "same"}}, {"name": "Block8_4_Branch_1_Conv2d_0b_1x3_BatchNorm", "inbound_nodes": [[["Block8_4_Branch_1_Conv2d_0b_1x3", 0, 0, {}]]], "class_name": "BatchNormalization", "config": {"center": true, "beta_initializer": {"class_name": "Zeros", "config": {"dtype": "float32"}}, "trainable": false, "beta_constraint": null, "beta_regularizer": null, "gamma_initializer": {"class_name": "Ones", "config": {"dtype": "float32"}}, "scale": false, "epsilon": 0.001, "moving_variance_initializer": {"class_name": "Ones", "config": {"dtype": "float32"}}, "axis": [3], "moving_mean_initializer": {"class_name": "Zeros", "config": {"dtype": "float32"}}, "dtype": "float32", "gamma_constraint": null, "name": "Block8_4_Branch_1_Conv2d_0b_1x3_BatchNorm", "gamma_regularizer": null, "momentum": 0.995}}, {"name": "Block8_4_Branch_1_Conv2d_0b_1x3_Activation", "inbound_nodes": [[["Block8_4_Branch_1_Conv2d_0b_1x3_BatchNorm", 0, 0, {}]]], "class_name": "Activation", "config": {"name": "Block8_4_Branch_1_Conv2d_0b_1x3_Activation", "trainable": false, "dtype": "float32", "activation": "relu"}}, {"name": "Block8_4_Branch_0_Conv2d_1x1", "inbound_nodes": [[["Block8_3_Activation", 0, 0, {}]]], "class_name": "Conv2D", "config": {"kernel_initializer": {"class_name": "VarianceScaling", "config": {"mode": "fan_avg", "distribution": "uniform", "seed": null, "scale": 1, "dtype": "float32"}}, "dilation_rate": [1, 1], "data_format": "channels_last", "trainable": false, "kernel_regularizer": null, "kernel_size": [1, 1], "activation": "linear", "bias_initializer": {"class_name": "Zeros", "config": {"dtype": "float32"}}, "dtype": "float32", "use_bias": false, "bias_regularizer": null, "kernel_constraint": null, "filters": 192, "strides": [1, 1], "name": "Block8_4_Branch_0_Conv2d_1x1", "bias_constraint": null, "activity_regularizer": null, "padding": "same"}}, {"name": "Block8_4_Branch_1_Conv2d_0c_3x1", "inbound_nodes": [[["Block8_4_Branch_1_Conv2d_0b_1x3_Activation", 0, 0, {}]]], "class_name": "Conv2D", "config": {"kernel_initializer": {"class_name": "VarianceScaling", "config": {"mode": "fan_avg", "distribution": "uniform", "seed": null, "scale": 1, "dtype": "float32"}}, "dilation_rate": [1, 1], "data_format": "channels_last", "trainable": false, "kernel_regularizer": null, "kernel_size": [3, 1], "activation": "linear", "bias_initializer": {"class_name": "Zeros", "config": {"dtype": "float32"}}, "dtype": "float32", "use_bias": false, "bias_regularizer": null, "kernel_constraint": null, "filters": 192, "strides": [1, 1], "name": "Block8_4_Branch_1_Conv2d_0c_3x1", "bias_constraint": null, "activity_regularizer": null, "padding": "same"}}, {"name": "Block8_4_Branch_0_Conv2d_1x1_BatchNorm", "inbound_nodes": [[["Block8_4_Branch_0_Conv2d_1x1", 0, 0, {}]]], "class_name": "BatchNormalization", "config": {"center": true, "beta_initializer": {"class_name": "Zeros", "config": {"dtype": "float32"}}, "trainable": false, "beta_constraint": null, "beta_regularizer": null, "gamma_initializer": {"class_name": "Ones", "config": {"dtype": "float32"}}, "scale": false, "epsilon": 0.001, "moving_variance_initializer": {"class_name": "Ones", "config": {"dtype": "float32"}}, "axis": [3], "moving_mean_initializer": {"class_name": "Zeros", "config": {"dtype": "float32"}}, "dtype": "float32", "gamma_constraint": null, "name": "Block8_4_Branch_0_Conv2d_1x1_BatchNorm", "gamma_regularizer": null, "momentum": 0.995}}, {"name": "Block8_4_Branch_1_Conv2d_0c_3x1_BatchNorm", "inbound_nodes": [[["Block8_4_Branch_1_Conv2d_0c_3x1", 0, 0, {}]]], "class_name": "BatchNormalization", "config": {"center": true, "beta_initializer": {"class_name": "Zeros", "config": {"dtype": "float32"}}, "trainable": false, "beta_constraint": null, "beta_regularizer": null, "gamma_initializer": {"class_name": "Ones", "config": {"dtype": "float32"}}, "scale": false, "epsilon": 0.001, "moving_variance_initializer": {"class_name": "Ones", "config": {"dtype": "float32"}}, "axis": [3], "moving_mean_initializer": {"class_name": "Zeros", "config": {"dtype": "float32"}}, "dtype": "float32", "gamma_constraint": null, "name": "Block8_4_Branch_1_Conv2d_0c_3x1_BatchNorm", "gamma_regularizer": null, "momentum": 0.995}}, {"name": "Block8_4_Branch_0_Conv2d_1x1_Activation", "inbound_nodes": [[["Block8_4_Branch_0_Conv2d_1x1_BatchNorm", 0, 0, {}]]], "class_name": "Activation", "config": {"name": "Block8_4_Branch_0_Conv2d_1x1_Activation", "trainable": false, "dtype": "float32", "activation": "relu"}}, {"name": "Block8_4_Branch_1_Conv2d_0c_3x1_Activation", "inbound_nodes": [[["Block8_4_Branch_1_Conv2d_0c_3x1_BatchNorm", 0, 0, {}]]], "class_name": "Activation", "config": {"name": "Block8_4_Branch_1_Conv2d_0c_3x1_Activation", "trainable": false, "dtype": "float32", "activation": "relu"}}, {"name": "Block8_4_Concatenate", "inbound_nodes": [[["Block8_4_Branch_0_Conv2d_1x1_Activation", 0, 0, {}], ["Block8_4_Branch_1_Conv2d_0c_3x1_Activation", 0, 0, {}]]], "class_name": "Concatenate", "config": {"name": "Block8_4_Concatenate", "trainable": false, "dtype": "float32", "axis": 3}}, {"name": "Block8_4_Conv2d_1x1", "inbound_nodes": [[["Block8_4_Concatenate", 0, 0, {}]]], "class_name": "Conv2D", "config": {"kernel_initializer": {"class_name": "VarianceScaling", "config": {"mode": "fan_avg", "distribution": "uniform", "seed": null, "scale": 1, "dtype": "float32"}}, "dilation_rate": [1, 1], "data_format": "channels_last", "trainable": false, "kernel_regularizer": null, "kernel_size": [1, 1], "activation": "linear", "bias_initializer": {"class_name": "Zeros", "config": {"dtype": "float32"}}, "dtype": "float32", "use_bias": true, "bias_regularizer": null, "kernel_constraint": null, "filters": 1792, "strides": [1, 1], "name": "Block8_4_Conv2d_1x1", "bias_constraint": null, "activity_regularizer": null, "padding": "same"}}, {"name": "lambda_19", "inbound_nodes": [[["Block8_4_Conv2d_1x1", 0, 0, {}]]], "class_name": "Lambda", "config": {"output_shape_module": null, "output_shape": [3, 3, 1792], "trainable": false, "arguments": {"scale": 0.2}, "function_type": "lambda", "name": "lambda_19", "module": "tensorflow.python.keras.layers.core", "function": ["4wIAAAAAAAAAAgAAAAIAAABDAAAAcwgAAAB8AAB8AQAUUykBTqkAKQLaAXjaBXNjYWxlcgEAAABy\nAQAAAPovQzovVXNlcnMvSVM5NjI3My9EZXNrdG9wL2luY2VwdGlvbl9yZXNuZXRfdjEucHnaB3Nj\nYWxpbmcZAAAAcwIAAAAAAQ==\n", null, null], "dtype": "float32", "output_shape_type": "raw"}}, {"name": "add_19", "inbound_nodes": [[["Block8_3_Activation", 0, 0, {}], ["lambda_19", 0, 0, {}]]], "class_name": "Add", "config": {"name": "add_19", "trainable": false, "dtype": "float32"}}, {"name": "Block8_4_Activation", "inbound_nodes": [[["add_19", 0, 0, {}]]], "class_name": "Activation", "config": {"name": "Block8_4_Activation", "trainable": false, "dtype": "float32", "activation": "relu"}}, {"name": "Block8_5_Branch_1_Conv2d_0a_1x1", "inbound_nodes": [[["Block8_4_Activation", 0, 0, {}]]], "class_name": "Conv2D", "config": {"kernel_initializer": {"class_name": "VarianceScaling", "config": {"mode": "fan_avg", "distribution": "uniform", "seed": null, "scale": 1, "dtype": "float32"}}, "dilation_rate": [1, 1], "data_format": "channels_last", "trainable": false, "kernel_regularizer": null, "kernel_size": [1, 1], "activation": "linear", "bias_initializer": {"class_name": "Zeros", "config": {"dtype": "float32"}}, "dtype": "float32", "use_bias": false, "bias_regularizer": null, "kernel_constraint": null, "filters": 192, "strides": [1, 1], "name": "Block8_5_Branch_1_Conv2d_0a_1x1", "bias_constraint": null, "activity_regularizer": null, "padding": "same"}}, {"name": "Block8_5_Branch_1_Conv2d_0a_1x1_BatchNorm", "inbound_nodes": [[["Block8_5_Branch_1_Conv2d_0a_1x1", 0, 0, {}]]], "class_name": "BatchNormalization", "config": {"center": true, "beta_initializer": {"class_name": "Zeros", "config": {"dtype": "float32"}}, "trainable": false, "beta_constraint": null, "beta_regularizer": null, "gamma_initializer": {"class_name": "Ones", "config": {"dtype": "float32"}}, "scale": false, "epsilon": 0.001, "moving_variance_initializer": {"class_name": "Ones", "config": {"dtype": "float32"}}, "axis": [3], "moving_mean_initializer": {"class_name": "Zeros", "config": {"dtype": "float32"}}, "dtype": "float32", "gamma_constraint": null, "name": "Block8_5_Branch_1_Conv2d_0a_1x1_BatchNorm", "gamma_regularizer": null, "momentum": 0.995}}, {"name": "Block8_5_Branch_1_Conv2d_0a_1x1_Activation", "inbound_nodes": [[["Block8_5_Branch_1_Conv2d_0a_1x1_BatchNorm", 0, 0, {}]]], "class_name": "Activation", "config": {"name": "Block8_5_Branch_1_Conv2d_0a_1x1_Activation", "trainable": false, "dtype": "float32", "activation": "relu"}}, {"name": "Block8_5_Branch_1_Conv2d_0b_1x3", "inbound_nodes": [[["Block8_5_Branch_1_Conv2d_0a_1x1_Activation", 0, 0, {}]]], "class_name": "Conv2D", "config": {"kernel_initializer": {"class_name": "VarianceScaling", "config": {"mode": "fan_avg", "distribution": "uniform", "seed": null, "scale": 1, "dtype": "float32"}}, "dilation_rate": [1, 1], "data_format": "channels_last", "trainable": false, "kernel_regularizer": null, "kernel_size": [1, 3], "activation": "linear", "bias_initializer": {"class_name": "Zeros", "config": {"dtype": "float32"}}, "dtype": "float32", "use_bias": false, "bias_regularizer": null, "kernel_constraint": null, "filters": 192, "strides": [1, 1], "name": "Block8_5_Branch_1_Conv2d_0b_1x3", "bias_constraint": null, "activity_regularizer": null, "padding": "same"}}, {"name": "Block8_5_Branch_1_Conv2d_0b_1x3_BatchNorm", "inbound_nodes": [[["Block8_5_Branch_1_Conv2d_0b_1x3", 0, 0, {}]]], "class_name": "BatchNormalization", "config": {"center": true, "beta_initializer": {"class_name": "Zeros", "config": {"dtype": "float32"}}, "trainable": false, "beta_constraint": null, "beta_regularizer": null, "gamma_initializer": {"class_name": "Ones", "config": {"dtype": "float32"}}, "scale": false, "epsilon": 0.001, "moving_variance_initializer": {"class_name": "Ones", "config": {"dtype": "float32"}}, "axis": [3], "moving_mean_initializer": {"class_name": "Zeros", "config": {"dtype": "float32"}}, "dtype": "float32", "gamma_constraint": null, "name": "Block8_5_Branch_1_Conv2d_0b_1x3_BatchNorm", "gamma_regularizer": null, "momentum": 0.995}}, {"name": "Block8_5_Branch_1_Conv2d_0b_1x3_Activation", "inbound_nodes": [[["Block8_5_Branch_1_Conv2d_0b_1x3_BatchNorm", 0, 0, {}]]], "class_name": "Activation", "config": {"name": "Block8_5_Branch_1_Conv2d_0b_1x3_Activation", "trainable": false, "dtype": "float32", "activation": "relu"}}, {"name": "Block8_5_Branch_0_Conv2d_1x1", "inbound_nodes": [[["Block8_4_Activation", 0, 0, {}]]], "class_name": "Conv2D", "config": {"kernel_initializer": {"class_name": "VarianceScaling", "config": {"mode": "fan_avg", "distribution": "uniform", "seed": null, "scale": 1, "dtype": "float32"}}, "dilation_rate": [1, 1], "data_format": "channels_last", "trainable": false, "kernel_regularizer": null, "kernel_size": [1, 1], "activation": "linear", "bias_initializer": {"class_name": "Zeros", "config": {"dtype": "float32"}}, "dtype": "float32", "use_bias": false, "bias_regularizer": null, "kernel_constraint": null, "filters": 192, "strides": [1, 1], "name": "Block8_5_Branch_0_Conv2d_1x1", "bias_constraint": null, "activity_regularizer": null, "padding": "same"}}, {"name": "Block8_5_Branch_1_Conv2d_0c_3x1", "inbound_nodes": [[["Block8_5_Branch_1_Conv2d_0b_1x3_Activation", 0, 0, {}]]], "class_name": "Conv2D", "config": {"kernel_initializer": {"class_name": "VarianceScaling", "config": {"mode": "fan_avg", "distribution": "uniform", "seed": null, "scale": 1, "dtype": "float32"}}, "dilation_rate": [1, 1], "data_format": "channels_last", "trainable": false, "kernel_regularizer": null, "kernel_size": [3, 1], "activation": "linear", "bias_initializer": {"class_name": "Zeros", "config": {"dtype": "float32"}}, "dtype": "float32", "use_bias": false, "bias_regularizer": null, "kernel_constraint": null, "filters": 192, "strides": [1, 1], "name": "Block8_5_Branch_1_Conv2d_0c_3x1", "bias_constraint": null, "activity_regularizer": null, "padding": "same"}}, {"name": "Block8_5_Branch_0_Conv2d_1x1_BatchNorm", "inbound_nodes": [[["Block8_5_Branch_0_Conv2d_1x1", 0, 0, {}]]], "class_name": "BatchNormalization", "config": {"center": true, "beta_initializer": {"class_name": "Zeros", "config": {"dtype": "float32"}}, "trainable": false, "beta_constraint": null, "beta_regularizer": null, "gamma_initializer": {"class_name": "Ones", "config": {"dtype": "float32"}}, "scale": false, "epsilon": 0.001, "moving_variance_initializer": {"class_name": "Ones", "config": {"dtype": "float32"}}, "axis": [3], "moving_mean_initializer": {"class_name": "Zeros", "config": {"dtype": "float32"}}, "dtype": "float32", "gamma_constraint": null, "name": "Block8_5_Branch_0_Conv2d_1x1_BatchNorm", "gamma_regularizer": null, "momentum": 0.995}}, {"name": "Block8_5_Branch_1_Conv2d_0c_3x1_BatchNorm", "inbound_nodes": [[["Block8_5_Branch_1_Conv2d_0c_3x1", 0, 0, {}]]], "class_name": "BatchNormalization", "config": {"center": true, "beta_initializer": {"class_name": "Zeros", "config": {"dtype": "float32"}}, "trainable": false, "beta_constraint": null, "beta_regularizer": null, "gamma_initializer": {"class_name": "Ones", "config": {"dtype": "float32"}}, "scale": false, "epsilon": 0.001, "moving_variance_initializer": {"class_name": "Ones", "config": {"dtype": "float32"}}, "axis": [3], "moving_mean_initializer": {"class_name": "Zeros", "config": {"dtype": "float32"}}, "dtype": "float32", "gamma_constraint": null, "name": "Block8_5_Branch_1_Conv2d_0c_3x1_BatchNorm", "gamma_regularizer": null, "momentum": 0.995}}, {"name": "Block8_5_Branch_0_Conv2d_1x1_Activation", "inbound_nodes": [[["Block8_5_Branch_0_Conv2d_1x1_BatchNorm", 0, 0, {}]]], "class_name": "Activation", "config": {"name": "Block8_5_Branch_0_Conv2d_1x1_Activation", "trainable": false, "dtype": "float32", "activation": "relu"}}, {"name": "Block8_5_Branch_1_Conv2d_0c_3x1_Activation", "inbound_nodes": [[["Block8_5_Branch_1_Conv2d_0c_3x1_BatchNorm", 0, 0, {}]]], "class_name": "Activation", "config": {"name": "Block8_5_Branch_1_Conv2d_0c_3x1_Activation", "trainable": false, "dtype": "float32", "activation": "relu"}}, {"name": "Block8_5_Concatenate", "inbound_nodes": [[["Block8_5_Branch_0_Conv2d_1x1_Activation", 0, 0, {}], ["Block8_5_Branch_1_Conv2d_0c_3x1_Activation", 0, 0, {}]]], "class_name": "Concatenate", "config": {"name": "Block8_5_Concatenate", "trainable": false, "dtype": "float32", "axis": 3}}, {"name": "Block8_5_Conv2d_1x1", "inbound_nodes": [[["Block8_5_Concatenate", 0, 0, {}]]], "class_name": "Conv2D", "config": {"kernel_initializer": {"class_name": "VarianceScaling", "config": {"mode": "fan_avg", "distribution": "uniform", "seed": null, "scale": 1, "dtype": "float32"}}, "dilation_rate": [1, 1], "data_format": "channels_last", "trainable": false, "kernel_regularizer": null, "kernel_size": [1, 1], "activation": "linear", "bias_initializer": {"class_name": "Zeros", "config": {"dtype": "float32"}}, "dtype": "float32", "use_bias": true, "bias_regularizer": null, "kernel_constraint": null, "filters": 1792, "strides": [1, 1], "name": "Block8_5_Conv2d_1x1", "bias_constraint": null, "activity_regularizer": null, "padding": "same"}}, {"name": "lambda_20", "inbound_nodes": [[["Block8_5_Conv2d_1x1", 0, 0, {}]]], "class_name": "Lambda", "config": {"output_shape_module": null, "output_shape": [3, 3, 1792], "trainable": false, "arguments": {"scale": 0.2}, "function_type": "lambda", "name": "lambda_20", "module": "tensorflow.python.keras.layers.core", "function": ["4wIAAAAAAAAAAgAAAAIAAABDAAAAcwgAAAB8AAB8AQAUUykBTqkAKQLaAXjaBXNjYWxlcgEAAABy\nAQAAAPovQzovVXNlcnMvSVM5NjI3My9EZXNrdG9wL2luY2VwdGlvbl9yZXNuZXRfdjEucHnaB3Nj\nYWxpbmcZAAAAcwIAAAAAAQ==\n", null, null], "dtype": "float32", "output_shape_type": "raw"}}, {"name": "add_20", "inbound_nodes": [[["Block8_4_Activation", 0, 0, {}], ["lambda_20", 0, 0, {}]]], "class_name": "Add", "config": {"name": "add_20", "trainable": false, "dtype": "float32"}}, {"name": "Block8_5_Activation", "inbound_nodes": [[["add_20", 0, 0, {}]]], "class_name": "Activation", "config": {"name": "Block8_5_Activation", "trainable": false, "dtype": "float32", "activation": "relu"}}, {"name": "Block8_6_Branch_1_Conv2d_0a_1x1", "inbound_nodes": [[["Block8_5_Activation", 0, 0, {}]]], "class_name": "Conv2D", "config": {"kernel_initializer": {"class_name": "VarianceScaling", "config": {"mode": "fan_avg", "distribution": "uniform", "seed": null, "scale": 1, "dtype": "float32"}}, "dilation_rate": [1, 1], "data_format": "channels_last", "trainable": false, "kernel_regularizer": null, "kernel_size": [1, 1], "activation": "linear", "bias_initializer": {"class_name": "Zeros", "config": {"dtype": "float32"}}, "dtype": "float32", "use_bias": false, "bias_regularizer": null, "kernel_constraint": null, "filters": 192, "strides": [1, 1], "name": "Block8_6_Branch_1_Conv2d_0a_1x1", "bias_constraint": null, "activity_regularizer": null, "padding": "same"}}, {"name": "Block8_6_Branch_1_Conv2d_0a_1x1_BatchNorm", "inbound_nodes": [[["Block8_6_Branch_1_Conv2d_0a_1x1", 0, 0, {}]]], "class_name": "BatchNormalization", "config": {"center": true, "beta_initializer": {"class_name": "Zeros", "config": {"dtype": "float32"}}, "trainable": false, "beta_constraint": null, "beta_regularizer": null, "gamma_initializer": {"class_name": "Ones", "config": {"dtype": "float32"}}, "scale": false, "epsilon": 0.001, "moving_variance_initializer": {"class_name": "Ones", "config": {"dtype": "float32"}}, "axis": [3], "moving_mean_initializer": {"class_name": "Zeros", "config": {"dtype": "float32"}}, "dtype": "float32", "gamma_constraint": null, "name": "Block8_6_Branch_1_Conv2d_0a_1x1_BatchNorm", "gamma_regularizer": null, "momentum": 0.995}}, {"name": "Block8_6_Branch_1_Conv2d_0a_1x1_Activation", "inbound_nodes": [[["Block8_6_Branch_1_Conv2d_0a_1x1_BatchNorm", 0, 0, {}]]], "class_name": "Activation", "config": {"name": "Block8_6_Branch_1_Conv2d_0a_1x1_Activation", "trainable": false, "dtype": "float32", "activation": "relu"}}, {"name": "Block8_6_Branch_1_Conv2d_0b_1x3", "inbound_nodes": [[["Block8_6_Branch_1_Conv2d_0a_1x1_Activation", 0, 0, {}]]], "class_name": "Conv2D", "config": {"kernel_initializer": {"class_name": "VarianceScaling", "config": {"mode": "fan_avg", "distribution": "uniform", "seed": null, "scale": 1, "dtype": "float32"}}, "dilation_rate": [1, 1], "data_format": "channels_last", "trainable": false, "kernel_regularizer": null, "kernel_size": [1, 3], "activation": "linear", "bias_initializer": {"class_name": "Zeros", "config": {"dtype": "float32"}}, "dtype": "float32", "use_bias": false, "bias_regularizer": null, "kernel_constraint": null, "filters": 192, "strides": [1, 1], "name": "Block8_6_Branch_1_Conv2d_0b_1x3", "bias_constraint": null, "activity_regularizer": null, "padding": "same"}}, {"name": "Block8_6_Branch_1_Conv2d_0b_1x3_BatchNorm", "inbound_nodes": [[["Block8_6_Branch_1_Conv2d_0b_1x3", 0, 0, {}]]], "class_name": "BatchNormalization", "config": {"center": true, "beta_initializer": {"class_name": "Zeros", "config": {"dtype": "float32"}}, "trainable": false, "beta_constraint": null, "beta_regularizer": null, "gamma_initializer": {"class_name": "Ones", "config": {"dtype": "float32"}}, "scale": false, "epsilon": 0.001, "moving_variance_initializer": {"class_name": "Ones", "config": {"dtype": "float32"}}, "axis": [3], "moving_mean_initializer": {"class_name": "Zeros", "config": {"dtype": "float32"}}, "dtype": "float32", "gamma_constraint": null, "name": "Block8_6_Branch_1_Conv2d_0b_1x3_BatchNorm", "gamma_regularizer": null, "momentum": 0.995}}, {"name": "Block8_6_Branch_1_Conv2d_0b_1x3_Activation", "inbound_nodes": [[["Block8_6_Branch_1_Conv2d_0b_1x3_BatchNorm", 0, 0, {}]]], "class_name": "Activation", "config": {"name": "Block8_6_Branch_1_Conv2d_0b_1x3_Activation", "trainable": false, "dtype": "float32", "activation": "relu"}}, {"name": "Block8_6_Branch_0_Conv2d_1x1", "inbound_nodes": [[["Block8_5_Activation", 0, 0, {}]]], "class_name": "Conv2D", "config": {"kernel_initializer": {"class_name": "VarianceScaling", "config": {"mode": "fan_avg", "distribution": "uniform", "seed": null, "scale": 1, "dtype": "float32"}}, "dilation_rate": [1, 1], "data_format": "channels_last", "trainable": false, "kernel_regularizer": null, "kernel_size": [1, 1], "activation": "linear", "bias_initializer": {"class_name": "Zeros", "config": {"dtype": "float32"}}, "dtype": "float32", "use_bias": false, "bias_regularizer": null, "kernel_constraint": null, "filters": 192, "strides": [1, 1], "name": "Block8_6_Branch_0_Conv2d_1x1", "bias_constraint": null, "activity_regularizer": null, "padding": "same"}}, {"name": "Block8_6_Branch_1_Conv2d_0c_3x1", "inbound_nodes": [[["Block8_6_Branch_1_Conv2d_0b_1x3_Activation", 0, 0, {}]]], "class_name": "Conv2D", "config": {"kernel_initializer": {"class_name": "VarianceScaling", "config": {"mode": "fan_avg", "distribution": "uniform", "seed": null, "scale": 1, "dtype": "float32"}}, "dilation_rate": [1, 1], "data_format": "channels_last", "trainable": false, "kernel_regularizer": null, "kernel_size": [3, 1], "activation": "linear", "bias_initializer": {"class_name": "Zeros", "config": {"dtype": "float32"}}, "dtype": "float32", "use_bias": false, "bias_regularizer": null, "kernel_constraint": null, "filters": 192, "strides": [1, 1], "name": "Block8_6_Branch_1_Conv2d_0c_3x1", "bias_constraint": null, "activity_regularizer": null, "padding": "same"}}, {"name": "Block8_6_Branch_0_Conv2d_1x1_BatchNorm", "inbound_nodes": [[["Block8_6_Branch_0_Conv2d_1x1", 0, 0, {}]]], "class_name": "BatchNormalization", "config": {"center": true, "beta_initializer": {"class_name": "Zeros", "config": {"dtype": "float32"}}, "trainable": false, "beta_constraint": null, "beta_regularizer": null, "gamma_initializer": {"class_name": "Ones", "config": {"dtype": "float32"}}, "scale": false, "epsilon": 0.001, "moving_variance_initializer": {"class_name": "Ones", "config": {"dtype": "float32"}}, "axis": [3], "moving_mean_initializer": {"class_name": "Zeros", "config": {"dtype": "float32"}}, "dtype": "float32", "gamma_constraint": null, "name": "Block8_6_Branch_0_Conv2d_1x1_BatchNorm", "gamma_regularizer": null, "momentum": 0.995}}, {"name": "Block8_6_Branch_1_Conv2d_0c_3x1_BatchNorm", "inbound_nodes": [[["Block8_6_Branch_1_Conv2d_0c_3x1", 0, 0, {}]]], "class_name": "BatchNormalization", "config": {"center": true, "beta_initializer": {"class_name": "Zeros", "config": {"dtype": "float32"}}, "trainable": false, "beta_constraint": null, "beta_regularizer": null, "gamma_initializer": {"class_name": "Ones", "config": {"dtype": "float32"}}, "scale": false, "epsilon": 0.001, "moving_variance_initializer": {"class_name": "Ones", "config": {"dtype": "float32"}}, "axis": [3], "moving_mean_initializer": {"class_name": "Zeros", "config": {"dtype": "float32"}}, "dtype": "float32", "gamma_constraint": null, "name": "Block8_6_Branch_1_Conv2d_0c_3x1_BatchNorm", "gamma_regularizer": null, "momentum": 0.995}}, {"name": "Block8_6_Branch_0_Conv2d_1x1_Activation", "inbound_nodes": [[["Block8_6_Branch_0_Conv2d_1x1_BatchNorm", 0, 0, {}]]], "class_name": "Activation", "config": {"name": "Block8_6_Branch_0_Conv2d_1x1_Activation", "trainable": false, "dtype": "float32", "activation": "relu"}}, {"name": "Block8_6_Branch_1_Conv2d_0c_3x1_Activation", "inbound_nodes": [[["Block8_6_Branch_1_Conv2d_0c_3x1_BatchNorm", 0, 0, {}]]], "class_name": "Activation", "config": {"name": "Block8_6_Branch_1_Conv2d_0c_3x1_Activation", "trainable": false, "dtype": "float32", "activation": "relu"}}, {"name": "Block8_6_Concatenate", "inbound_nodes": [[["Block8_6_Branch_0_Conv2d_1x1_Activation", 0, 0, {}], ["Block8_6_Branch_1_Conv2d_0c_3x1_Activation", 0, 0, {}]]], "class_name": "Concatenate", "config": {"name": "Block8_6_Concatenate", "trainable": false, "dtype": "float32", "axis": 3}}, {"name": "Block8_6_Conv2d_1x1", "inbound_nodes": [[["Block8_6_Concatenate", 0, 0, {}]]], "class_name": "Conv2D", "config": {"kernel_initializer": {"class_name": "VarianceScaling", "config": {"mode": "fan_avg", "distribution": "uniform", "seed": null, "scale": 1, "dtype": "float32"}}, "dilation_rate": [1, 1], "data_format": "channels_last", "trainable": false, "kernel_regularizer": null, "kernel_size": [1, 1], "activation": "linear", "bias_initializer": {"class_name": "Zeros", "config": {"dtype": "float32"}}, "dtype": "float32", "use_bias": true, "bias_regularizer": null, "kernel_constraint": null, "filters": 1792, "strides": [1, 1], "name": "Block8_6_Conv2d_1x1", "bias_constraint": null, "activity_regularizer": null, "padding": "same"}}, {"name": "lambda_21", "inbound_nodes": [[["Block8_6_Conv2d_1x1", 0, 0, {}]]], "class_name": "Lambda", "config": {"output_shape_module": null, "output_shape": [3, 3, 1792], "trainable": false, "arguments": {"scale": 1}, "function_type": "lambda", "name": "lambda_21", "module": "tensorflow.python.keras.layers.core", "function": ["4wIAAAAAAAAAAgAAAAIAAABDAAAAcwgAAAB8AAB8AQAUUykBTqkAKQLaAXjaBXNjYWxlcgEAAABy\nAQAAAPovQzovVXNlcnMvSVM5NjI3My9EZXNrdG9wL2luY2VwdGlvbl9yZXNuZXRfdjEucHnaB3Nj\nYWxpbmcZAAAAcwIAAAAAAQ==\n", null, null], "dtype": "float32", "output_shape_type": "raw"}}, {"name": "add_21", "inbound_nodes": [[["Block8_5_Activation", 0, 0, {}], ["lambda_21", 0, 0, {}]]], "class_name": "Add", "config": {"name": "add_21", "trainable": false, "dtype": "float32"}}, {"name": "AvgPool", "inbound_nodes": [[["add_21", 0, 0, {}]]], "class_name": "GlobalAveragePooling2D", "config": {"name": "AvgPool", "data_format": "channels_last", "trainable": false, "dtype": "float32"}}, {"name": "Dropout", "inbound_nodes": [[["AvgPool", 0, 0, {}]]], "class_name": "Dropout", "config": {"dtype": "float32", "trainable": false, "rate": 0.19999999999999996, "name": "Dropout", "noise_shape": null, "seed": null}}]}}, {"name": "model_1", "inbound_nodes": [[["model", 1, 0, {}]], [["model", 2, 0, {}]], [["model", 3, 0, {}]]], "class_name": "Model", "config": {"name": "model_1", "output_layers": [["normalize", 0, 0]], "input_layers": [["input", 0, 0]], "layers": [{"name": "input", "inbound_nodes": [], "class_name": "InputLayer", "config": {"batch_input_shape": [null, 1792], "sparse": false, "dtype": "float32", "name": "input"}}, {"name": "dense", "inbound_nodes": [[["input", 0, 0, {}]]], "class_name": "Dense", "config": {"kernel_initializer": {"class_name": "VarianceScaling", "config": {"mode": "fan_avg", "distribution": "uniform", "seed": null, "scale": 1.0, "dtype": "float32"}}, "bias_initializer": {"class_name": "Zeros", "config": {"dtype": "float32"}}, "trainable": true, "kernel_regularizer": null, "activation": "linear", "dtype": "float32", "use_bias": true, "bias_regularizer": null, "kernel_constraint": null, "units": 512, "name": "dense", "bias_constraint": null, "activity_regularizer": null}}, {"name": "leaky_re_lu", "inbound_nodes": [[["dense", 0, 0, {}]]], "class_name": "LeakyReLU", "config": {"name": "leaky_re_lu", "alpha": 0.10000000149011612, "trainable": true, "dtype": "float32"}}, {"name": "dense_1", "inbound_nodes": [[["leaky_re_lu", 0, 0, {}]]], "class_name": "Dense", "config": {"kernel_initializer": {"class_name": "VarianceScaling", "config": {"mode": "fan_avg", "distribution": "uniform", "seed": null, "scale": 1.0, "dtype": "float32"}}, "bias_initializer": {"class_name": "Zeros", "config": {"dtype": "float32"}}, "trainable": true, "kernel_regularizer": null, "activation": "linear", "dtype": "float32", "use_bias": true, "bias_regularizer": null, "kernel_constraint": null, "units": 128, "name": "dense_1", "bias_constraint": null, "activity_regularizer": null}}, {"name": "normalize", "inbound_nodes": [[["dense_1", 0, 0, {}]]], "class_name": "Lambda", "config": {"output_shape_module": null, "output_shape": null, "trainable": true, "arguments": {}, "function_type": "lambda", "name": "normalize", "module": "__main__", "function": ["4wEAAAAAAAAAAQAAAAQAAABTAAAAcxMAAAB0AABqAQB8AABkAQBkAwCDAQFTKQRO2gRheGlz6QEA\nAADp/////ykC2gFL2gxsMl9ub3JtYWxpemUpAdoBeKkAcgcAAAD6HjxpcHl0aG9uLWlucHV0LTYt\nNmY5NmVkYzE2YWNiPtoIPGxhbWJkYT4GAAAAcwAAAAA=\n", null, null], "dtype": "float32", "output_shape_type": "raw"}}]}}, {"name": "concatenate", "inbound_nodes": [[["model_1", 1, 0, {}], ["model_1", 2, 0, {}], ["model_1", 3, 0, {}]]], "class_name": "Concatenate", "config": {"name": "concatenate", "dtype": "float32", "trainable": true, "axis": -1}}]}}